artifacts/trained_model.pth (torch, 90614 bytes, 37 tensors)

pos_embedding f4 [1, 16, 32]
000000 00 00 00 00 00 00 80 3f 00 00 00 00 00 00 80 3f
       0.0 1.0 0.0 1.0
000010 00 00 00 00 00 00 80 3f 00 00 00 00 00 00 80 3f
       0.0 1.0 0.0 1.0
000020 00 00 00 00 00 00 80 3f 00 00 00 00 00 00 80 3f
       0.0 1.0 0.0 1.0
000030 00 00 00 00 00 00 80 3f 00 00 00 00 00 00 80 3f
       0.0 1.0 0.0 1.0
000040 00 00 00 00 00 00 80 3f 00 00 00 00 00 00 80 3f
       0.0 1.0 0.0 1.0
000050 00 00 00 00 00 00 80 3f 00 00 00 00 00 00 80 3f
       0.0 1.0 0.0 1.0
000060 00 00 00 00 00 00 80 3f 00 00 00 00 00 00 80 3f
       0.0 1.0 0.0 1.0
000070 00 00 00 00 00 00 80 3f 00 00 00 00 00 00 80 3f
       0.0 1.0 0.0 1.0
000080 a4 6a 57 3f 41 51 0a 3f ba 7d 08 3f 0e 94 58 3f
       0.84147096 0.54030234 0.53316844 0.84600914
000090 3e 39 9f 3e 6b 4e 73 3f 3a 23 35 3e 83 f6 7b 3f
       0.3109836 0.9504153 0.17689219 0.9842302
0000a0 77 75 cc 3d 98 b8 7e 3f af 36 66 3d 68 98 7f 3f
       0.09983342 0.9950042 0.056204494 0.9984193
0000b0 5c 81 01 3d 3c df 7f 3f 42 ab 91 3c a3 f5 7f 3f
       0.031617507 0.99950004 0.017781857 0.99984187
0000c0 57 d6 23 3c b9 fc 7f 3f 5c 44 b8 3b f7 fe 7f 3f
       0.009999833 0.99995 0.0056233834 0.9999842
0000d0 21 3e 4f 3b ac ff 7f 3f 20 15 e9 3a e6 ff 7f 3f
       0.0031622725 0.999995 0.0017782785 0.99999845
0000e0 6e 12 83 3a f8 ff 7f 3f 15 6a 13 3a fe ff 7f 3f
       0.0009999999 0.9999995 0.00056234124 0.9999999
0000f0 60 cb a5 39 ff ff 7f 3f 53 77 3a 39 00 00 80 3f
       0.0003162278 0.99999994 0.00017782794 1.0
000100 b7 c7 68 3f 33 11 d5 be 0a f2 66 3f b2 e8 dc 3e
       0.9092974 -0.41614684 0.9021307 0.43146282
000110 1b 54 17 3f ec 7b 4e 3f f6 47 b2 3e a6 fa 6f 3f
       0.5911271 0.8065784 0.34820527 0.93741834
000120 f9 6f 4b 3e a5 e5 7a 3f 87 d9 e5 3d f3 61 7e 3f
       0.19866933 0.9800666 0.11223131 0.9936821
000130 c9 70 81 3d f9 7c 7f 3f 5c a5 11 3d 8e d6 7f 3f
       0.0632034 0.9980007 0.03555809 0.9993676
000140 3e d4 a3 3c e5 f2 7f 3f 9d 43 38 3c db fb 7f 3f
       0.019998666 0.9998 0.011246589 0.99993676
000150 dd 3d cf 3b b1 fe 7f 3f 08 15 69 3b 96 ff 7f 3f
       0.0063245133 0.99998003 0.0035565514 0.9999937
000160 69 12 03 3b df ff 7f 3f 14 6a 93 3a f5 ff 7f 3f
       0.0019999987 0.99999803 0.0011246824 0.99999934
000170 5f cb 25 3a fd ff 7f 3f 53 77 ba 39 ff ff 7f 3f
       0.0006324555 0.9999998 0.00035565588 0.99999994
000180 c3 81 10 3e 26 70 7d bf d7 45 7e 3f ab 7f ed bd
       0.14112 -0.9899925 0.9932532 -0.11596616
000190 c2 09 50 3f 58 2f 15 3f 6d 2f 02 3f 29 6d 5c 3f
       0.8126489 0.58275366 0.50853616 0.86104065
0001a0 6d 4e 97 3e ef 90 74 3f d8 ee 2b 3e 9e 5d 7c 3f
       0.29552022 0.9553365 0.1679033 0.9858035
0001b0 c1 ff c1 3d 4f d9 7e 3f 4e 69 5a 3d c3 a2 7f 3f
       0.09472609 0.99550337 0.053323083 0.9985773
0001c0 1f b9 f5 3c 83 e2 7f 3f c7 31 8a 3c ad f6 7f 3f
       0.0299955 0.99955004 0.016869439 0.9998577
0001d0 11 6e 1b 3c 0d fd 7f 3f a8 cf ae 3b 11 ff 7f 3f
       0.009486691 0.999955 0.005334813 0.99998575
0001e0 93 9b 44 3b b5 ff 7f 3f 1b 1f dd 3a e8 ff 7f 3f
       0.0029999956 0.9999955 0.0016870232 0.99999857
0001f0 0d b1 78 3a f9 ff 7f 3f 7f d9 0b 3a fe ff 7f 3f
       0.0009486832 0.9999996 0.00053348386 0.9999999
000200 cf bd 41 bf 30 55 27 bf ec 49 47 3f 9e af 20 bf
       -0.7568025 -0.6536436 0.7784717 -0.6276797
000210 de 1d 74 3f b1 2e 9a 3e bc 1f 27 3f ed eb 41 3f
       0.95358074 0.30113748 0.652828 0.7575062
000220 d8 61 c7 3e a7 ca 6b 3f c6 65 64 3e 09 8d 79 3f
       0.38941836 0.921061 0.22304448 0.9748083
000230 89 2e 01 3e 69 f4 7d 3f c8 8d 91 3d 46 5a 7f 3f
       0.12615408 0.99201065 0.07107121 0.9974712
000240 db cb 23 3d 94 cb 7f 3f a2 40 b8 3c 6c ef 7f 3f
       0.039989334 0.9992001 0.022491757 0.99974704
000250 ce 3c 4f 3c c2 fa 7f 3f a7 14 e9 3b 58 fe 7f 3f
       0.012648774 0.99992 0.0071130577 0.9999747
000260 58 12 83 3b 7a ff 7f 3f 0e 6a 13 3b d6 ff 7f 3f
       0.0039999895 0.999992 0.0022493633 0.9999975
000270 5d cb a5 3a f3 ff 7f 3f 52 77 3a 3a fc ff 7f 3f
       0.0012649108 0.9999992 0.0007113117 0.99999976
000280 10 7c 75 bf 2c 3c 91 3e d8 da a5 3e 40 32 72 bf
       -0.9589243 0.2836622 0.32393527 -0.94607925
000290 7f fc 7f 3f e9 72 29 bc ab ca 46 3f f1 4c 21 3f
       0.99994653 -0.010342338 0.77652997 0.6300803
0002a0 44 77 f5 3e 40 a9 60 3f ed 11 8e 3e 7c f2 75 3f
       0.47942555 0.87758255 0.2774805 0.96073127
0002b0 1e 3c 21 3e 81 ce 7c 3f 21 db b5 3d 1e fd 7e 3f
       0.15745589 0.987526 0.08879686 0.99604976
0002c0 f5 b6 4c 3d 19 ae 7f 3f fe 4d e6 3c 19 e6 7f 3f
       0.04997917 0.99875027 0.028113361 0.99960476
0002d0 81 85 81 3c cf f7 7f 3f bb ac 11 3c 69 fd 7f 3f
       0.01581073 0.999875 0.00889128 0.9999605
0002e0 dd d6 a3 3b 2f ff 7f 3f 8c 44 38 3b be ff 7f 3f
       0.004999979 0.99998754 0.002811703 0.99999607
0002f0 31 3e cf 3a eb ff 7f 3f 26 15 69 3a f9 ff 7f 3f
       0.0015811381 0.99999875 0.0008891396 0.9999996
000300 8c 0f 8f be b8 cd 75 3f 76 e5 6b be 53 1d 79 bf
       -0.2794155 0.96017027 -0.23036751 -0.9731037
000310 4e 78 72 3f 6d 3f a4 be 89 30 60 3f 32 2f f7 3e
       0.9471482 -0.3207964 0.8757406 0.48278195
000320 69 8c 10 3f 32 49 53 3f fd 7d a9 3e e2 90 71 3f
       0.5646425 0.8253356 0.33103934 0.943617
000330 6f 20 41 3e e3 67 7b 3f c2 19 da 3d 51 8b 7e 3f
       0.18860029 0.98205394 0.10649444 0.9943133
000340 d1 9c 75 3d 12 8a 7f 3f bf 2c 0a 3d b3 da 7f 3f
       0.059964005 0.99820054 0.03373408 0.99943084
000350 47 6c 9b 3c 34 f4 7f 3f 05 cf 2e 3c 45 fc 7f 3f
       0.01897253 0.99982 0.0106694745 0.9999431
000360 59 9b c4 3b d2 fe 7f 3f 07 1f 5d 3b a1 ff 7f 3f
       0.005999964 0.999982 0.0033740418 0.99999434
000370 05 b1 f8 3a e2 ff 7f 3f 7d d9 8b 3a f7 ff 7f 3f
       0.0018973654 0.9999982 0.0010669675 0.99999946
000380 46 30 28 3f bd ff 40 3f 6d b6 36 bf 61 4f 33 bf
       0.6569866 0.75390226 -0.7137211 -0.70043
000390 6e e8 4c 3f bc 74 19 bf 45 84 72 3f b6 f8 a3 3e
       0.8004216 -0.5994375 0.9473308 0.3202569
0003a0 73 eb 24 3f b3 cc 43 3f de 60 c4 3e c6 6b 6c 3f
       0.64421767 0.7648422 0.38355154 0.9235195
0003b0 51 d3 60 3e ea c0 79 3f ba 46 fe 3d e9 04 7e 3f
       0.21955611 0.9755999 0.12415834 0.9922624
0003c0 32 3e 8f 3d 81 5f 7f 3f 5f 31 21 3d 3b cd 7f 3f
       0.06994285 0.997551 0.039353725 0.9992253
0003d0 a6 52 b5 3c f2 ef 7f 3f 2a f1 4b 3c ec fa 7f 3f
       0.022134136 0.999755 0.012447635 0.9999225
0003e0 c7 5f e5 3b 65 fe 7f 3f be fc 80 3b 7e ff 7f 3f
       0.006999943 0.9999755 0.003936379 0.99999225
0003f0 ec 11 11 3b d7 ff 7f 3f 66 28 a3 3a f3 ff 7f 3f
       0.0022135926 0.99999756 0.0012447953 0.9999992

patch_embedding.weight f4 [32, 49]
000000 44 22 2c bd 47 cb d5 bc f5 7e ad bc d7 64 a9 bd
       -0.042024866 -0.026097907 -0.021178702 -0.08271187
000010 28 75 2b bd 02 1a 8d bc 49 07 c0 3d 47 a3 8f 3d
       -0.041859776 -0.017224316 0.093763895 0.070135646
000020 7f 22 42 3d da 25 26 bd f8 59 1b bd 5b b6 28 bd
       0.04739618 -0.04056344 -0.037927598 -0.041189533
000030 ec c1 a0 bc ad ae 34 3c 2e 20 26 bd e2 53 5c bd
       -0.01962372 0.011027974 -0.040558033 -0.053790934
000040 95 9e c1 3d e7 92 87 3d f0 8b 3f 3d 00 7e 42 bd
       0.09454075 0.06619816 0.046764314 -0.047483444
000050 f6 28 82 3c 26 c8 eb 3d 8a 82 3e 3c 95 84 c8 bd
       0.015888672 0.11512785 0.011627803 -0.09790913
000060 75 46 a4 bd 42 50 a7 bc 25 66 59 bd ed d0 2b bd
       -0.08021251 -0.020424012 -0.05307593 -0.041947294
000070 31 6e 91 bd 2c 84 c5 3d 2e 92 d2 3d e2 a1 0d 3e
       -0.071010955 0.096443504 0.10281788 0.13831285
000080 19 4b 38 bc c1 4e c0 3c 80 94 88 3d 9c 96 13 3d
       -0.011248373 0.023475053 0.06668949 0.036032304
000090 84 39 5b bd 2d 5a a5 3c d9 3f 87 bb 97 ce 15 3c
       -0.053521648 0.0201846 -0.0041274843 0.009143493
0000a0 b0 63 4a 3d de 96 47 bd 22 06 26 3d b1 ea 7d bd
       0.049411476 -0.048727863 0.040533192 -0.061991397
0000b0 0e 3a 31 3d 8e 3e 96 3c 37 de ad 3d 26 64 2c 3d
       0.043268256 0.018340375 0.0848965 0.042087696
0000c0 64 92 a7 3d 59 9f 95 3d 65 23 ab bd 5b 21 93 3d
       0.08182219 0.07305784 -0.0835636 0.071840964
0000d0 7e 13 af bd f1 14 07 3e 3a 14 6a 3d 18 9e 36 3d
       -0.0854864 0.13191582 0.057148196 0.044584364
0000e0 62 ea 27 3d 6f 70 a6 3c a5 41 02 bd 44 5a 44 bd
       0.04099501 0.020317284 -0.031800885 -0.047937647
0000f0 f0 48 03 bd cd fa 99 3d 9a 31 59 3c af 43 c2 3d
       -0.03205198 0.075185396 0.013256455 0.09485566
000100 67 f3 cc bd 2c a3 6d bd 44 fa 9b bc cc 9c 5c bd
       -0.10007363 -0.05801694 -0.019040234 -0.05386047
000110 c4 87 55 bd 9c 4d 12 3d a1 77 5a 3d 40 9e 83 3d
       -0.05213143 0.035718545 0.053336743 0.06426668
000120 e9 1c 32 3a fe d7 5f bd 72 69 dd 39 57 d5 8a 3d
       0.0006794469 -0.054649346 0.00042230968 0.067789726
000130 7f 38 00 3e 1a 77 c1 3c 10 82 65 3d de 4b 69 3c
       0.12521552 0.023616362 0.05603224 0.01423928
000140 64 b7 30 bb 16 13 91 3d 07 0c a8 3d 5e c7 54 3e
       -0.0026964778 0.070837185 0.08205419 0.20779178
000150 01 3b d8 3d c5 d0 44 3d 8c 2e 50 3a 35 a2 aa 3b
       0.10558129 0.04805066 0.00079415063 0.005207325
000160 54 6e df 3c 85 0a 14 3c 84 98 8f 3d 98 9c 0c 3c
       0.027274288 0.009035711 0.07011512 0.008582257
000170 b9 77 a6 bd 8b c3 40 3d b1 e2 60 3d a7 96 e8 bd
       -0.08128304 0.047061484 0.05490369 -0.1135686
000180 d5 76 cb 3d 59 65 84 3c df d6 dc bd 13 ab 36 3d
       0.09934775 0.016161608 -0.10783171 0.044596743
000190 50 17 b0 bc 63 eb 90 bd 44 8c ae bd 02 9f b8 3d
       -0.021495491 -0.070761465 -0.08522847 0.09014703
0001a0 9f e3 0c 3d 2b 74 e6 3b b7 53 b1 3b 8e 53 73 bd
       0.034396764 0.0070328913 0.005411591 -0.059405856
0001b0 e6 4a a6 bc f5 00 ac bc 01 52 bf 3c 40 bc db 3d
       -0.020299386 -0.02099655 0.023354532 0.10729265
0001c0 81 3a 90 bd d9 13 65 bd c0 37 0c 3d 58 fb 86 3d
       -0.07042409 -0.05592713 0.034232855 0.06590909
0001d0 2f fd ea 3d e9 9f 05 3c b1 46 c7 3d 21 59 12 3e
       0.11474072 0.008155801 0.0973028 0.14291812
0001e0 51 a1 1a bd 6f b6 26 bd 96 f7 42 3d 62 52 f4 3b
       -0.0377515 -0.040701326 0.047599398 0.00745611
0001f0 39 5e c8 bc 35 94 13 3d e0 40 92 bd 38 7f 16 3d
       -0.024458991 0.036030013 -0.0714128 0.03674242
000200 41 e4 dd 3d 0a 21 93 3c 5c 3f 4a bd b6 a3 25 3e
       0.108345516 0.01796009 -0.04937683 0.16175732
000210 b1 61 11 be dd 81 36 3e bc e1 44 bd cd ab 81 3d
       -0.14197423 0.17822976 -0.04806684 0.063315965
000220 f0 b1 24 3d 0e 6b 5e 3d a5 a6 f8 3c 5f a0 2b be
       0.040208757 0.054301314 0.0303529 -0.16760395
000230 06 2f db 3d 48 63 23 be db 0f 86 bd a4 cf 88 bd
       0.107023284 -0.15955842 -0.06545993 -0.06680229
000240 c3 46 3e 3d b2 05 35 bd bc a1 ec 3d 9d fb b1 3d
       0.046454202 -0.044194885 0.11554286 0.086905695
000250 3a df bc 3d fe 3f 81 3d 40 a5 38 bc 10 f0 a3 3d
       0.092222646 0.06311034 -0.011269867 0.08004773
000260 43 a8 00 3d bd be a2 3b 52 d8 0c 3e af a4 3d 3d
       0.031410467 0.0049665854 0.13754395 0.046299633
000270 ae 15 d9 bd af 5b 73 3d ef de af 3c 29 13 ac 3d
       -0.10599838 0.05941361 0.021468608 0.08402092
000280 b4 61 d3 3d f9 a8 c0 bd 46 dc c6 3d a4 49 d1 3d
       0.1032137 -0.09407229 0.097099826 0.10219124
000290 59 aa 3a 3d 6d f6 e4 3d ea f3 a0 3d d6 ed de 3d
       0.045572612 0.111798145 0.07859023 0.10885207
0002a0 b8 b2 0e bd 76 37 3f 3c 63 30 60 3b 0b 95 57 3d
       -0.03483841 0.011670938 0.0034208528 0.052632373
0002b0 aa fe eb 3d 63 c7 be 3d 24 96 18 bd 55 4f 7a 3d
       0.11523183 0.09315374 -0.03725256 0.061110813
0002c0 48 b6 c2 3d e3 2b 1b 3d 58 97 96 3d 71 28 b7 3d
       0.09507424 0.03788365 0.07353085 0.089432605
0002d0 e9 25 36 bd 96 08 21 3e 5f ee 07 be 77 aa 9a bc
       -0.044469748 0.15725932 -0.13274525 -0.018880112
0002e0 31 c2 21 3d a7 aa 85 bd 57 fb bb bb 80 97 76 3d
       0.039491836 -0.0652669 -0.005736749 0.060203075
0002f0 60 53 87 3d de e7 57 bd 9b fb 96 bd 2a 45 41 bd
       0.066076994 -0.05271136 -0.07372209 -0.0471851
000300 09 d0 b9 3d 3d d0 92 bd 4d 5b b7 3c e0 4f 1d bd
       0.09072883 -0.071686246 0.022382403 -0.038406253
000310 33 c5 bc bd 4d a6 f1 3c 80 ff 1e be 84 c2 50 be
       -0.092173 0.029498244 -0.15527153 -0.20386702
000320 95 16 06 be 3c 1c ab bd a4 8a 6a bd d5 bc 08 3e
       -0.13094552 -0.08354995 -0.057261124 0.13353284
000330 72 71 50 bc ea 48 10 be 92 8b 21 be fa c6 cb bd
       -0.01272236 -0.14090315 -0.15775898 -0.09950061
000340 07 75 9c bd cd f1 0e 3e be c4 1b 3e 43 31 15 3d
       -0.07639509 0.13959427 0.1521177 0.036423933
000350 3c 91 3e bd a8 b2 70 be fd c6 3e bd 01 57 14 be
       -0.046525225 -0.23505652 -0.04657649 -0.14486314
000360 df 19 83 bb e8 4d 4a 3e 65 7d e3 3d 6f 64 2a 3c
       -0.004000887 0.19756281 0.111079015 0.010399922
000370 24 9c cc 3d ea b3 c0 bc c6 da b6 3c 82 65 0a be
       0.09990719 -0.02352329 0.022321116 -0.13515285
000380 31 76 6f 3d 31 02 6c 3e 8c 94 8d 3d 75 94 0d 3d
       0.058462325 0.23047711 0.06913099 0.034565408
000390 e7 ce d1 3d 0f f8 a0 3c 62 e3 70 3d b7 87 f1 3d
       0.102445416 0.019649534 0.0588106 0.11793464
0003a0 ec 1d a7 3d a3 0f 47 3d 7c 79 00 3c 89 5a e2 3d
       0.08160004 0.048598897 0.007841464 0.110524245
0003b0 42 8d 16 bd 7f f3 6f 3c 00 00 c8 bd 33 80 d3 bc
       -0.036755808 0.014645456 -0.09765625 -0.025817966
0003c0 f1 59 4a bd c6 f1 9b bd 1d 21 c2 bd e7 02 c4 3c
       -0.04940218 -0.07614474 -0.09478972 0.023927165
0003d0 35 06 29 3e 5f b0 17 3e 6e ea f9 3d d0 97 52 bd
       0.16506274 0.14813374 0.12202917 -0.05141431
0003e0 6a 13 36 bb 5d e6 91 3d 39 7b 7d 3d 87 02 ec 3c
       -0.0027782568 0.071240164 0.061885092 0.028809799
0003f0 0c 44 12 bd 74 d8 f9 3d 6f 7a ce bb 97 e3 c9 bd
       -0.035709426 0.12199488 -0.0063012163 -0.098578624

patch_embedding.bias f4 [32]
000000 56 3f 14 3d 7d 89 0f be 7a 7d d2 bd 1d 1d 7e be
       0.036193214 -0.14017291 -0.10277839 -0.24815793
000010 f7 66 ea 3d 42 c5 9d bc 27 39 66 3e cd e1 21 3e
       0.1144542 -0.019259099 0.2248274 0.15808792
000020 63 16 50 3e 36 82 15 be 09 b4 bc ba db 1b ae 3d
       0.2032104 -0.14600453 -0.0014396916 0.08501407
000030 94 46 77 3c 3a cd ba bc cc b7 fb 3d ab b8 96 3d
       0.015092511 -0.022802938 0.12290916 0.07359441
000040 ba fd 29 be 62 00 b3 3c 5c d8 26 3d 84 59 47 bd
       -0.16600695 0.021850768 0.04073368 -0.048669353
000050 83 50 e6 bd 26 97 bb 3c 3c e1 ec 3c 8b dc c3 bd
       -0.11245825 0.022899222 0.028915994 -0.095635496
000060 53 70 3d 3d 63 15 80 bd ae 68 42 bd 59 0e 99 3d
       0.0462497 -0.06254079 -0.04746311 0.0747344
000070 71 37 d0 bd b7 58 3b 3c 67 34 fe bd 9f d9 cf bb
       -0.101668246 0.0114347255 -0.12412339 -0.006343081

W_q.0.weight f4 [32, 32]
000000 8d 64 30 be f1 38 e5 3d d4 5d 82 bd 4a 9f 05 bf
       -0.17225857 0.11192501 -0.063655525 -0.5219618
000010 95 41 9f 3e e7 af f6 3d 3b d8 57 be 2b 16 9b 3d
       0.31104723 0.120452695 -0.21078579 0.075725876
000020 13 6f e5 bc 3d 45 f2 3c 63 22 81 bb 5d 8c d2 3d
       -0.028007066 0.029574031 -0.003940867 0.102806784
000030 5d b6 50 3e 91 bc 09 bd c8 09 2e be 58 28 80 ba
       0.20382066 -0.033627097 -0.16995919 -0.0009777648
000040 2e df 13 3e b9 58 1d bd bc d4 3f 3d 7f a0 78 bd
       0.14440605 -0.03841469 0.04683374 -0.060699936
000050 83 fc da 3d 43 c7 b0 bc 3a 01 b2 bd 19 e7 e1 3d
       0.10692694 -0.02157939 -0.0869164 0.110304065
000060 af 62 2b be 19 8c 47 3e 7f 6b bb bc 3a 1f 3f 3e
       -0.16736864 0.19487037 -0.022878407 0.18664256
000070 b5 7c 8b bc 15 c1 4c bd 00 74 7e be 9d 45 be 3e
       -0.017027238 -0.049988825 -0.24848938 0.37162486
000080 53 eb 91 3d db b1 62 bd cf 40 85 bd 63 d3 17 3e
       0.07124963 -0.055345397 -0.06506502 0.14826731
000090 9c 28 b6 bd 5d e2 c8 3b 53 a2 8b bd 60 08 f5 bd
       -0.088944644 0.0061305 -0.0681807 -0.11964488
0000a0 f1 c5 9e bd 9e c1 47 bc da ba 86 bc 20 5c 93 3e
       -0.07752598 -0.012192158 -0.01644652 0.28781223
0000b0 1c f7 e2 3d 6e ba 56 3d 59 6f 16 be 95 36 7c 3e
       0.110822886 0.052423887 -0.14690913 0.24630196
0000c0 39 d6 59 3c 94 27 77 3e 83 4d aa 3d 0c f2 b1 3c
       0.013295704 0.24136192 0.083155654 0.021721862
0000d0 3f 39 17 bd 54 3b bb bc a9 8b 29 be cf 7b 24 3e
       -0.03691983 -0.022855438 -0.16557182 0.16062854
0000e0 46 c7 4f 3e 2c f0 6d 39 08 93 0e be 6b 37 74 3d
       0.2029086 0.00022691552 -0.13923275 0.059623163
0000f0 00 26 17 bd bf 7a c9 bd f3 d9 ab bd aa 95 8e be
       -0.036901474 -0.09837865 -0.0839118 -0.2784856
000100 80 7c 2d be 6b cb b9 3d 92 b2 7e bd ac 56 14 3e
       -0.16942024 0.09072002 -0.062182017 0.14486188
000110 a2 57 cd 3b ab 5b 93 3e 84 2a 44 3e 0a 7e c9 bd
       0.00626655 0.28780875 0.19156843 -0.09838493
000120 71 1f 2c be e2 85 1d 3e 57 ea 58 3c da b3 2e be
       -0.16808869 0.15383103 0.013239465 -0.17060795
000130 f2 16 82 bd 36 e7 e3 bd 41 eb 67 3d 5d 3f b4 bd
       -0.06352033 -0.11128084 0.05662084 -0.08801148
000140 af e4 40 3e 3d b3 35 3e 90 ab 89 3d dd c9 83 3e
       0.18837236 0.17744155 0.06722176 0.25739947
000150 ea 16 4a be 2b 0f 95 3e 30 6e a4 bd 71 6e 86 3d
       -0.19735304 0.29113135 -0.08028829 0.06564034
000160 8c 1e 92 3d f4 3d 1d 3e be ab 11 bd c9 9b 95 3d
       0.071347326 0.15355664 -0.035564177 0.07305104
000170 04 64 f5 3c 38 26 74 3d f9 43 bf be 5d 65 95 3e
       0.029954918 0.05960676 -0.37356547 0.29178897
000180 4b 2a 99 3e 9f bf 09 3e af f6 52 3e 24 13 29 3d
       0.2991508 0.13452004 0.20601915 0.04127802
000190 c9 95 9d be 6a 4d 06 3e c3 0d 86 be c4 94 66 be
       -0.3077834 0.13115469 -0.26182374 -0.22517687
0001a0 b6 c3 95 3d 88 d7 29 3e ff c5 0a 3e 03 f6 76 bd
       0.073127195 0.16586125 0.13552092 -0.06029321
0001b0 3e ac 8e bc f2 d7 11 3e a7 2a e8 3d 65 2f 24 3e
       -0.017416116 0.14242533 0.1133626 0.16033705
0001c0 f1 4e f9 bd af 36 a7 3d 84 35 6d be 15 fd db 3c
       -0.1217326 0.08164727 -0.23164946 0.026854077
0001d0 36 88 81 bc 08 e9 28 3a b7 44 1a 3e 20 b6 02 3e
       -0.01581202 0.0006443416 0.15065275 0.12764788
0001e0 ac 7a 26 bd 8f f5 47 3d 90 6b 8d bd 7d e7 87 bc
       -0.040644333 0.048818167 -0.069052815 -0.016589874
0001f0 b1 e9 bf bd c8 5c 26 be 81 8d 6d be ae 17 1a 3e
       -0.09370745 -0.1624633 -0.2319851 0.15048096
000200 03 a1 28 bd 7d 67 86 3e f8 6f 37 3e 5a 52 f6 be
       -0.041169178 0.2625083 0.17913806 -0.48109704
000210 7f e8 3f 3e 6e ad 8b bc 4d 12 bb bd bc 19 99 3e
       0.18741034 -0.017050471 -0.0913435 0.29902446
000220 02 87 00 3e 24 50 bf bd 66 46 e3 3d a8 8c 9d 3d
       0.12551501 -0.093414575 0.11097412 0.07692844
000230 1e c5 79 bd ab de 93 bd 57 17 fb bc e5 77 7f bd
       -0.060979 -0.07220205 -0.030650778 -0.0623702
000240 45 66 e0 3c e6 8f e1 3c e5 28 cc 3d 40 8c f1 3c
       0.027392516 0.027534436 0.099687375 0.029485822
000250 59 dc 5c be 2e 6e 8b bd 36 1d 08 3e 15 6e 1d bd
       -0.21568431 -0.068081245 0.13292393 -0.03843506
000260 f2 f5 ad 3d e4 55 64 be b3 e9 1d bb 36 b4 72 3d
       0.08494176 -0.2229839 -0.0024095594 0.059253894
000270 30 74 7c be 9b 8b 66 bd d7 ad 24 3e 84 b5 ca 3d
       -0.24653697 -0.056285482 0.1608194 0.098979026
000280 c5 68 28 be 6a 0e 91 3d 32 1d 06 be 2c 00 80 3d
       -0.16446216 0.070828274 -0.13097075 0.06250033
000290 7b 72 04 3e 29 aa 46 3d 6e 4f 2c bc f6 bc 4a 3d
       0.12934296 0.04850212 -0.010516984 0.049496613
0002a0 86 b6 aa bd e5 02 85 3d ed f5 dc bd d2 53 a7 bb
       -0.08335595 0.06494693 -0.10789094 -0.0051064277
0002b0 79 ec 7b be 2d e1 b3 3d a5 4e e3 bd ff 88 27 bd
       -0.24601926 0.08783183 -0.11098985 -0.040902134
0002c0 05 59 25 bb da 67 27 bd 34 0d 29 bd 67 c4 90 bd
       -0.0025230062 -0.040870525 -0.041272357 -0.07068711
0002d0 e0 db ab 3d 46 4c 62 3e 99 86 13 be 3f eb 00 3e
       0.08391547 0.22099409 -0.14406814 0.1258974
0002e0 ec de 22 3e 76 9d 16 be 27 6f 94 bd bd 45 e7 3d
       0.1590535 -0.14708504 -0.07247763 0.112925984
0002f0 f2 9a 26 bd 2e 5a 38 3d 2c a5 b1 3d 1b 47 29 3e
       -0.04067511 0.045007877 0.08674082 0.16531031
000300 b5 82 e9 bd 7c 4f b9 bd 38 ce 0a 3d 28 68 8c be
       -0.114018835 -0.090483636 0.03388807 -0.27423215
000310 b1 f6 eb 3d 74 83 3e be d9 77 02 3b 09 76 94 3e
       0.11521662 -0.18604833 0.001990786 0.28996304
000320 3e 2d 55 3e 3c 6d 91 be d2 7d 05 be ff ea e2 bd
       0.2081804 -0.28403652 -0.13036278 -0.11079978
000330 e6 1e 76 bd 77 e0 ae bd b1 88 f6 bd f8 a3 d9 3a
       -0.06008806 -0.08538907 -0.120377906 0.0016604653
000340 83 24 1b be 56 e1 b8 bc 4e e1 db 3d b7 6b f9 bd
       -0.15150647 -0.022568386 0.10736333 -0.12178748
000350 73 45 88 3d e1 f5 8b 3d 97 48 64 3e 8d d4 0f bd
       0.066538714 0.06834007 0.22293316 -0.035114814
000360 4f c7 18 3d 43 40 1b 3d 43 fe b1 bd 5f cd ff bd
       0.03729945 0.03790308 -0.08691075 -0.12490343
000370 8b 01 cf bd af 83 40 3d a6 8d 28 3e cd 3d 4d 3e
       -0.10107716 0.047000583 0.16460285 0.20043106
000380 4a 1f 26 bc fb 0b 16 bb 9f 99 02 be 3b 8c b1 3e
       -0.010139296 -0.0022895325 -0.12753914 0.346773
000390 b2 60 43 3d a4 f7 20 3d 0d 78 4f bd be c6 f8 bc
       0.047699638 0.03929867 -0.0506516 -0.030368205
0003a0 87 43 80 3d 60 26 27 be 51 78 b0 be a0 da d8 bd
       0.0626288 -0.16323233 -0.34466794 -0.105885744
0003b0 22 b8 b0 bd 6e 5a fc 3d 31 3c 01 be ab ae 21 3e
       -0.086288705 0.123219356 -0.12620617 0.15789287
0003c0 f2 43 56 3c 6a a6 fc 3d 8f cf 90 be d4 13 49 be
       0.013077723 0.123364285 -0.28283355 -0.1963647
0003d0 a5 3a 94 3e 94 31 01 bd d3 3a 2c 3e bf fa 7b 3e
       0.28950992 -0.031541422 0.16819315 0.24607371
0003e0 54 66 38 3b 74 0a 9d bd 76 c9 12 be 08 e3 aa bd
       0.0028137164 -0.076680094 -0.14334664 -0.08344084
0003f0 62 c6 68 3d bb 3f 32 be f6 0e 67 3c 89 3a a7 3d
       0.056829818 -0.17407124 0.014102688 0.081654616

W_q.0.bias f4 [32]
000000 46 f0 0a be 1b 15 13 be 84 52 8e 3e c3 2e 5f 3e
       -0.1356822 -0.1436352 0.2779733 0.21795182
000010 23 16 d2 bd f0 81 c2 bd 73 50 7f be 74 56 0d 3e
       -0.102581285 -0.0949744 -0.24933033 0.1380251
000020 66 c8 7e be 0a ec b9 3e bd e7 21 bd 38 f6 49 be
       -0.24881133 0.36312896 -0.039527643 -0.19722831
000030 29 03 8c be f5 13 28 bd c7 a2 19 3d 7d e7 93 3d
       -0.2734616 -0.041034658 0.037508752 0.07221887
000040 0d 46 a9 bd 40 6f c1 3d f8 f0 4b 3e 0d f0 70 bd
       -0.08265314 0.094450474 0.19916141 -0.05882268
000050 74 96 33 3e 65 35 bc 3e a2 14 a0 3e 62 47 27 bd
       0.17537862 0.36759487 0.31265742 -0.04083956
000060 eb bb 85 3e e6 e2 a2 bd 3b 58 57 bd 83 c4 2c bd
       0.26119933 -0.07953434 -0.052574378 -0.042179596
000070 b9 37 e5 3c 0a 24 1a be 84 e0 d3 3e f6 fe 9f bd
       0.027980672 -0.1505281 0.4138223 -0.07812302

W_q.1.weight f4 [32, 32]
000000 1b 76 73 3c 68 35 46 be ac 36 83 3e 42 01 3f 3c
       0.0148597015 -0.1935631 0.2562765 0.011658015
000010 0f 6f 19 be c5 11 0b bd 7b d9 15 bd f9 2e f4 bd
       -0.14983772 -0.033952493 -0.03658436 -0.11923022
000020 b0 cc b1 bd b2 8b 90 3e 62 d0 6f 3d 9c d0 80 be
       -0.08681619 0.2823158 0.05854834 -0.25159156
000030 d6 b4 67 bd 4e bc 6b bd bc 70 28 3e 75 9c ff 3d
       -0.056568943 -0.05755263 0.16449255 0.12481014
000040 80 65 e2 3c 93 c0 8e 3d b3 21 c1 bc 63 b1 49 3e
       0.02763629 0.06970324 -0.02357564 0.19696574
000050 9a 07 00 be 68 e0 c0 be ef 62 20 3e 9e 32 3c 3d
       -0.125029 -0.37671208 0.1566274 0.04594671
000060 e0 8f 0e 3d d8 22 ee bd b6 d9 17 3e 54 f5 17 3e
       0.03480518 -0.1162774 0.14829144 0.14839679
000070 f5 cb 34 3e 59 f8 b7 3c 57 25 42 be 7f 8b 92 be
       0.17655928 0.022457289 -0.18959557 -0.28622052
000080 2a bb de bd 50 d4 b5 3d 86 6a 9f 3c 19 e9 47 be
       -0.108755425 0.08878386 0.019459974 -0.19522513
000090 f9 b7 5c be aa a7 86 3e 52 8b cc bd d6 ce cd 3d
       -0.21554555 0.26299793 -0.09987511 0.100492164
0000a0 93 21 6f be 09 47 0d 3e 56 5d 60 bd c8 04 d0 3d
       -0.23352651 0.13796629 -0.054776512 0.10157162
0000b0 47 25 da bd f3 43 88 3d 4f ef ce 3d 79 8f 5c 3e
       -0.10651641 0.06653585 0.10104238 0.21539105
0000c0 04 bc 87 be 97 ca 42 3d 25 b6 77 bd 56 32 3e 3e
       -0.26510632 0.047556486 -0.06047644 0.18573889
0000d0 d3 92 3a be cc d1 99 3e f4 8a 63 3d ff e7 88 3e
       -0.18220071 0.30042875 0.055552438 0.267395
0000e0 66 ab 61 bc 3d b4 e1 3d 54 b7 28 be c3 20 dc 3d
       -0.013773775 0.11020706 -0.16476184 0.10748436
0000f0 95 62 c7 bc aa fe 09 be 9c e6 2f 3d 75 7c 04 3e
       -0.024339 -0.13476053 0.042944536 0.12938102
000100 b2 fd 35 bd 7f e9 33 3d bb ef 32 3e 2a 5c cd bb
       -0.044431396 0.04392385 0.17474262 -0.0062670903
000110 d5 32 f5 3d 66 63 f2 bd 97 d8 a2 3e 3d 5b 8d 3e
       0.11972586 -0.11835365 0.3180587 0.27608672
000120 aa 45 b2 3d 82 8f c2 be 04 d6 7f 3e 87 7e 88 bd
       0.087046936 -0.38000113 0.24983984 -0.06664758
000130 09 db 56 3d 93 e0 f2 3d fe 3e 72 3d 3c 1e e0 bd
       0.052454982 0.118592404 0.059142105 -0.10943267
000140 1a 0d 1c 3e d5 d3 b4 be 67 8d 43 3e 41 9e 13 3e
       0.15239373 -0.35317865 0.1909691 0.14415838
000150 ab 04 70 bc 24 b3 09 3d cc 69 75 3d 36 74 bd bc
       -0.01464955 0.033618107 0.05991535 -0.023126703
000160 83 db 8c 3e c3 d3 7e be 3a 8a 34 3d 39 c1 2d be
       0.27511224 -0.24885468 0.044077136 -0.1696824
000170 f2 32 85 bd 20 07 1f 3e b7 37 33 3e a5 88 f5 bd
       -0.06503858 0.15530062 0.17501722 -0.119889535
000180 b3 a6 55 3e bf ec 8e 3c 06 fd d0 3c 09 65 18 3e
       0.20864372 0.017446874 0.025511276 0.14882292
000190 f5 63 fa bd 8a 71 48 3e 90 01 13 be 6d bf 2e bd
       -0.122260965 0.19574562 -0.14356065 -0.042663027
0001a0 1a 85 b1 bd 61 00 a2 bd 9a 98 05 bc b6 aa ab be
       -0.08667965 -0.079102285 -0.008154059 -0.3352868
0001b0 43 8f b7 3d 97 13 1d 3d fa 55 3c bd 8c e7 8e 3e
       0.08962872 0.03834876 -0.04598043 0.2791103
0001c0 f8 67 0e ba 47 51 b2 3a 30 1a 2c 3d e1 23 84 be
       -0.00054323627 0.0013604545 0.04201716 -0.25808623
0001d0 55 d4 e2 bc 57 43 39 be e0 28 e0 3d c3 15 4a be
       -0.027689138 -0.18092094 0.10945296 -0.19734864
0001e0 5e 58 0c 3e 24 8f 6d bd 48 a3 fa 3d b4 60 1c be
       0.13705584 -0.057997838 0.12238175 -0.15271264
0001f0 f0 98 c4 bd 71 f8 d4 bd 6b 9e 45 bd 05 fd 9f be
       -0.09599483 -0.10398949 -0.048246782 -0.31247726
000200 77 c1 39 be dd 3b ec 3c 2b 52 6e 3c fe 90 9b bd
       -0.18140207 0.028837139 0.014545958 -0.075960144
000210 41 e8 00 3e 17 da 87 bd 4d 38 e3 3d af 96 fd bd
       0.12588598 -0.06633394 0.11094723 -0.12382256
000220 6b 0b 89 bd 44 2a 58 3e a4 05 fd bc 7a a0 c5 3c
       -0.06691631 0.21109873 -0.030886479 0.024124373
000230 2d ec a6 3d ea 0e 0b 3e e2 5a b0 3d 74 43 02 be
       0.08150516 0.13579908 0.086110845 -0.12721044
000240 19 05 a3 bd 8d 98 e0 3d 55 69 5e bd 5d 7e 10 3d
       -0.07959957 0.10966597 -0.05429967 0.03527676
000250 49 ba 4f be 1c 2b b2 bc f4 30 2f be 8f 63 15 3e
       -0.20285906 -0.021749072 -0.17108518 0.1458876
000260 b8 9d a5 3d 74 03 cb 3d 7b 98 01 bd ff bc ea bd
       0.08086723 0.09912768 -0.031639557 -0.114618294
000270 ec 53 1a be 25 f7 8b 3c 02 de 17 be f5 e4 82 be
       -0.15071076 0.017085621 -0.14830783 -0.25565305
000280 e8 63 9d 3d ef 63 18 be 65 46 66 3e f8 dc 1a 3c
       0.07685071 -0.14881872 0.22487791 0.009452097
000290 b3 56 ac bd 03 8e ee 3d 71 7f 38 3d 2e 5e 26 bd
       -0.08414974 0.1164818 0.045043413 -0.04061716
0002a0 4b 6b 84 3d cb 0a 9e 3d cc a3 6d 3d e0 5f 24 bd
       0.06465777 0.07716902 0.058017537 -0.040130496
0002b0 99 e2 63 bd 4c 0d 05 be dd 07 aa bb 69 50 40 3e
       -0.055636022 -0.12993354 -0.0051889257 0.18780674
0002c0 ae 24 f2 bc e9 1d a2 be 70 08 5e 3e fe 6c 05 be
       -0.029558506 -0.31663445 0.21682906 -0.13029858
0002d0 56 d7 93 3d 3b 8a d2 bd 9d 15 0c 3e f8 de a8 bd
       0.072188064 -0.102802716 0.1368012 -0.08245653
0002e0 9a 89 52 3d 72 81 2e 3b 05 89 95 bd 80 9d b4 be
       0.05140076 0.0026627448 -0.07301525 -0.35276413
0002f0 6d 4a 0c be c8 fb c7 3d 66 b8 75 3e 13 ea 32 be
       -0.13700266 0.0976482 0.23996124 -0.17472105
000300 32 f7 c7 3e 84 24 d5 3c e8 24 1a 3e d8 8d c5 3d
       0.39055783 0.026018389 0.15053141 0.09646195
000310 cd d1 22 bc 22 41 24 3e 48 a6 fd bd 50 d5 a5 3e
       -0.009937716 0.16040471 -0.12385231 0.32389307
000320 57 5b 49 bc ee d5 51 3e 70 fe da bd 74 c9 d5 be
       -0.0122898435 0.20491764 -0.10693061 -0.4175526
000330 38 45 05 be b7 08 71 bd b2 58 de bd 3f cf 6f bc
       -0.13014686 -0.0588462 -0.10856761 -0.014636814
000340 01 cb e9 3d ee 0a a0 bc a1 1b 1f 3e 7b 2f c4 bd
       0.11415673 -0.019536462 0.15537883 -0.09579369
000350 b5 82 81 3d ea da 6f bd dc fb 5e 3e 7b af f4 bd
       0.063237585 -0.058558382 0.21775764 -0.11947533
000360 86 fd 88 bd 22 60 68 3c 29 26 2c 3b 1e 37 bc bd
       -0.06688981 0.014183076 0.0026267862 -0.091902
000370 c2 4a 95 bd 52 29 85 bd bc c4 28 3e c7 88 99 bd
       -0.072896495 -0.06502022 0.16481298 -0.07496791
000380 df d8 9f be 2d f4 68 bc 37 53 a8 bd b3 35 16 3e
       -0.31220147 -0.014218372 -0.08218997 0.14668922
000390 30 f8 41 be 87 ce 13 be 19 99 cc 3d 30 d9 73 be
       -0.18942332 -0.14434253 0.099901386 -0.23813319
0003a0 a6 8b c7 bd a2 13 cb 3d 9f c4 70 bd f0 26 44 3a
       -0.09743433 0.09915854 -0.058781262 0.0007482609
0003b0 e0 f6 71 3e ce 28 21 3d 29 88 97 bd 0e 4e 35 3e
       0.23629332 0.039345555 -0.07399017 0.17705557
0003c0 17 aa ca bc de 2d 52 3e 89 50 3b 3d 0a 43 c5 3b
       -0.024739308 0.2052531 0.0457311 0.0060199546
0003d0 11 c5 3e 3e 7e 33 06 be 43 43 4d bd 5a 37 71 3c
       0.18629862 -0.1310558 -0.050112974 0.0147226695
0003e0 15 bb a8 bd cc b4 80 3b ff 6d e5 3d 1e f5 52 3e
       -0.08238808 0.0039278027 0.11202621 0.20601317
0003f0 bd ae 1a 3e 36 54 a0 bc 91 77 84 be 9e d1 6c 3d
       0.1510572 -0.019571405 -0.25872472 0.057817094

W_q.1.bias f4 [32]
000000 eb b6 81 3e c1 84 98 3e 25 1b ba bd 6f 8c fe 3d
       0.25334868 0.29788783 -0.09087209 0.12429129
000010 a6 79 66 3e 69 2e 7f be 1f 30 5a be fc 8f 92 3e
       0.22507343 -0.24920048 -0.21307419 0.28625476
000020 02 d1 87 3e e1 64 96 3e 61 f6 db 3b ce 4f 57 bd
       0.26526648 0.2937384 0.0067127203 -0.052566342
000030 26 80 8e be 06 99 91 bd 72 4d 74 3e 52 56 2f bd
       -0.27832144 -0.07109265 0.23857668 -0.04280693
000040 b2 f2 85 be 68 a4 7f 3d 2f a5 5f 3e 11 2f 45 3e
       -0.26161724 0.06241265 0.21840356 0.19256236
000050 3a 91 32 3d 5a 2c 91 be 53 2f 2d bd 90 00 89 be
       0.04359553 -0.2835415 -0.04228146 -0.26758242
000060 61 32 10 3e a6 a3 e1 bd a9 9c 47 3e 04 1e 89 3e
       0.14081718 -0.110175416 0.19493355 0.26780713
000070 70 6f 74 be 3b 5e 99 bd 9c bd 49 be 9f 83 93 bd
       -0.23870635 -0.07488676 -0.19701236 -0.07202839

W_k.0.weight f4 [32, 32]
000000 24 c3 b6 3e 2b 6d e6 bd 5f 19 69 be 00 8d 6c 3e
       0.35695755 -0.11251291 -0.22763585 0.23100662
000010 b5 4f 31 be 01 75 13 bd 38 6a 6d bc 55 c3 b7 3d
       -0.17315562 -0.036000255 -0.014490657 0.089728035
000020 be 14 9f 3e 72 79 cb 3d 94 7b b3 3c a3 df 3f be
       0.31070513 0.09935273 0.021909513 -0.18737654
000030 0d 22 e9 3d 8c 3e 0d 3d a8 bb 8c bd 7e 98 1a 3e
       0.11383448 0.034483477 -0.0687173 0.15097234
000040 39 c5 28 be 06 f4 94 3d 1a ea ff bd f1 2d 3b 3e
       -0.16481484 0.07273106 -0.12495823 0.18279244
000050 8b 3a 16 3e 81 6d 2d bd f7 14 3b 3e 89 41 3f 3e
       0.1467077 -0.04234076 0.18269716 0.18677343
000060 3f cd bf bc 8a 38 8a be 51 3e df bd f4 4d ab 3d
       -0.023413299 -0.2699626 -0.10900558 0.08364478
000070 b7 66 b3 bd 48 da 47 be b8 fa 42 3e 55 78 5a 3e
       -0.08759826 -0.19516861 0.19040954 0.21334966
000080 47 1c 86 be 3e 0b 9c ba 36 dc 64 bd 37 fb 6d be
       -0.2619345 -0.0011905206 -0.055874072 -0.23240362
000090 0f 66 10 3d 29 4e 95 3d 40 d3 19 bc 54 94 d2 bd
       0.03525358 0.072902985 -0.009388745 -0.102821976
0000a0 32 d8 37 3c b3 b7 ff bd c7 b6 77 3e ee 01 79 3d
       0.011220979 -0.1248621 0.24190818 0.060792856
0000b0 96 f9 43 bd 64 a6 77 bd 68 a5 11 3e 90 c4 bc 3d
       -0.047845446 -0.060461417 0.14223254 0.09217179
0000c0 5e 9c 7b bd bb 00 87 3c f4 72 11 3e 8a ca 5a 3e
       -0.06142842 0.01647984 0.14204007 0.21366325
0000d0 c0 e3 cd bc fd 17 6a be 22 9c 83 bd da 3f e8 bd
       -0.025133014 -0.22860713 -0.06426264 -0.11340304
0000e0 25 83 87 bc 12 ff fd 3d d8 cb 1f 3d 25 39 5a bc
       -0.016542027 0.124021664 0.03901276 -0.013319288
0000f0 aa 02 63 be 4b db 95 3d b7 c6 d4 3d 0f ce 6d be
       -0.22168985 0.073172174 0.10389464 -0.23223136
000100 96 78 c1 bc 40 66 ab 3e f1 47 11 be 8a 67 8c 3d
       -0.02361707 0.33476448 -0.141876 0.06855686
000110 c1 ec 1d 3a 56 52 84 3d e7 cc 14 3e 8c 4a 42 3d
       0.0006024354 0.06461017 0.14531289 0.047434375
000120 48 06 a5 bc 0d 32 73 3c 59 06 92 be 46 c7 0b 3c
       -0.020144597 0.014843476 -0.28520468 0.008531397
000130 f0 48 70 bb 13 b2 37 bd 2f 95 30 3d f9 c9 2a 3e
       -0.0036664568 -0.04484756 0.043111023 0.16678609
000140 04 0e 42 be fd a1 84 3e b6 a2 ee 3c f1 f9 67 be
       -0.18950659 0.25904837 0.029130321 -0.22653939
000150 f3 00 30 3d 6f f8 0f 3e 04 e2 cc 3b e5 f4 56 3e
       0.042969655 0.14059614 0.006252529 0.20991857
000160 85 64 67 3e 55 48 fa bd 86 33 3c bd 06 45 d7 3d
       0.22596939 -0.122208275 -0.045947574 0.10511212
000170 bb c9 55 be 45 c0 27 be 97 b5 cd 3c 06 30 be bd
       -0.20877735 -0.16381939 0.025111003 -0.092865035
000180 07 af 1a be 7c b8 18 3e e0 10 98 3e 59 c5 c6 3c
       -0.1510583 0.14914125 0.29700375 0.024264025
000190 e9 a6 de 3d 36 4a 12 be e6 24 56 be ca ac 89 3c
       0.10871679 -0.14286122 -0.20912513 0.016806025
0001a0 6f 93 f2 bd ed 0d e3 3d a0 8c 47 3d 63 74 ba bc
       -0.11844527 0.110866405 0.048718095 -0.022760576
0001b0 f4 cd 1b be 56 9f 33 3e 3e 14 0c be 14 d3 80 3e
       -0.15215284 0.1754125 -0.13679597 0.2516104
0001c0 a1 10 ab 3d b1 ba 51 bd 6e 10 ad bd d3 1a 94 be
       0.08352781 -0.051203433 -0.08450399 -0.28926715
0001d0 2a 88 a0 3e 36 8e ec 3d e9 7d 65 3e e4 11 52 3c
       0.31353885 0.11550562 0.22411312 0.012821648
0001e0 a8 8f ac 3d 68 d3 8b 3e 28 4e fe 3d dd 43 ad 3c
       0.08425838 0.27309728 0.12417251 0.021150524
0001f0 a7 cc d0 be ef f9 dc bd 2c 2e c0 bd bb 82 89 3d
       -0.40781137 -0.107898585 -0.093838066 0.06714388
000200 ca c0 c3 3e ae cd a1 be 6e 28 62 bd ae 4c 26 3e
       0.38233024 -0.31602234 -0.055214338 0.16240188
000210 9e b5 84 be e2 6c d9 3c 1e 44 f9 bd 7f 75 3f 3e
       -0.25919813 0.026541177 -0.121711954 0.18697165
000220 39 23 3b 3e 51 69 50 be 6d 09 a9 3d 84 08 c0 3d
       0.18275155 -0.20352675 0.08253751 0.09376624
000230 c5 b4 ef bd d7 e6 2a be de 83 1b 3d 49 e0 b2 3d
       -0.11704401 -0.16689621 0.037967555 0.08734185
000240 44 df 29 be 7e a4 54 3c 03 89 5a bc a1 6d 5f 3d
       -0.16589075 0.012978671 -0.01333833 0.05454791
000250 f1 ca ee 3d 5d 75 ab 3c 6b ff 06 3e a9 08 fc bd
       0.11659802 0.020929987 0.13183372 -0.12306339
000260 1f c1 7c 3d e3 80 be bd 67 ea 21 be 67 0e 6a 3b
       0.061707612 -0.09301927 -0.15812074 0.003571415
000270 cd 2a 36 3d 76 ca 33 be e0 f7 1d be 36 15 fb 3c
       0.04447441 -0.17557701 -0.15426588 0.030649763
000280 06 04 b0 bd c7 1e 39 3d 1f 72 f6 3d 86 96 e4 bd
       -0.085945174 0.045195367 0.120334856 -0.111615226
000290 ab 12 2c be 2b bf af bd 02 c8 6c 3e 49 bc f0 bd
       -0.16803996 -0.08581384 0.23123172 -0.117546625
0002a0 74 a9 39 3e b8 51 34 be c6 c1 19 be 7f 99 2d be
       0.18131047 -0.17609298 -0.15015325 -0.16953085
0002b0 3c b1 bc bd d6 b4 da bd 33 c5 05 3e 20 2b aa 3c
       -0.09213492 -0.10679023 0.13063507 0.020772517
0002c0 7e e3 91 3b ab 25 03 3e 4b cf 61 be 40 4c 63 be
       0.004452168 0.12807338 -0.22051732 -0.22197056
0002d0 79 eb 32 3c 5c 6c a8 bd 08 85 60 3c 80 eb 47 3e
       0.010920399 -0.08223793 0.013703592 0.1952343
0002e0 fe cd 90 bd e4 b7 a8 be 1c 60 1e 3d c9 c4 3f 3e
       -0.0707054 -0.32952797 0.038665876 0.18727411
0002f0 a0 de 05 bd 6b ad 4a bd 6c b2 00 3e 0b ec 02 3d
       -0.032683015 -0.04948179 0.12568063 0.03196339
000300 9f 99 28 3e ac 4b c9 be 2a 79 33 bd cf d6 c3 3d
       0.16464852 -0.39315546 -0.043816723 0.09562456
000310 42 1b 07 3b 0c ea 2a 3e c2 88 8f bc 87 2f 57 3d
       0.0020615612 0.16690844 -0.017521266 0.05253556
000320 fe 49 46 3e 09 16 93 bc e0 14 35 bd 8f e4 2a be
       0.19364163 -0.017954843 -0.04420936 -0.1668875
000330 83 1b 80 3d cc 52 fa bd 07 00 82 3d 6d fa 74 be
       0.062552474 -0.122228235 0.063476615 -0.23923655
000340 43 f9 bb bd 46 b4 11 3d ef c5 63 bd 46 c9 84 3d
       -0.09178402 0.035572313 -0.055608686 0.06483702
000350 db 84 d3 3d 29 8e b5 bd 66 c4 06 3e 69 ca ab bd
       0.103280745 -0.088650055 0.13160858 -0.08388216
000360 34 47 90 bc 67 97 21 be ca c6 8f 3d bc 0e a5 3d
       -0.017612077 -0.15780412 0.07020338 0.08059451
000370 c0 2a a0 3e eb 21 2d 3e b2 b0 dd bb b5 20 66 3e
       0.31282616 0.1690747 -0.0067654485 0.22473414
000380 b4 73 c8 be ed 0d 09 3e df 82 72 3d 14 51 12 be
       -0.39150774 0.13384219 0.05920684 -0.14288741
000390 f2 bb a1 bd 33 11 86 3d 1c de 91 3d bc 59 a6 3d
       -0.07897176 0.06546249 0.07122442 0.08122584
0003a0 47 a2 de bd c7 de 0e 3e 52 ec 28 3e 9e c0 40 3e
       -0.10870796 0.1395217 0.16496399 0.18823478
0003b0 1d c6 13 3e 4b f1 44 3e ab e9 2a 3e 33 2a 4e 3e
       0.14431043 0.19232671 0.166907 0.20133285
0003c0 f2 6a 48 be 40 70 8e 3d b7 4e a2 be a5 38 de bd
       -0.19572046 0.06955004 -0.3170068 -0.10850648
0003d0 28 65 2e 3e 54 e1 bb 3d da 91 96 3e f5 c9 31 3e
       0.17030776 0.09173837 0.2940815 0.17362197
0003e0 2a b8 fb 3c 8c b7 25 be e6 41 6b bd 66 f9 66 bd
       0.030727465 -0.16183299 -0.057435893 -0.05639019
0003f0 43 9e 52 bd 8e 20 94 3d db c8 09 3d 06 ad bf 3d
       -0.05142046 0.07232772 0.033638816 0.093591735

W_k.0.bias f4 [32]
000000 ad 64 d4 bd 96 9e b3 3d ba c6 d8 bd c5 80 ee 3c
       -0.10370765 0.08770482 -0.10584779 0.029114136
000010 6e 15 89 bd 32 e5 dd bc 9d 1e b5 bd 48 3e 9e 3d
       -0.066935405 -0.027086828 -0.0884373 0.07726723
000020 03 ad dd 3c 78 f4 98 bd 00 46 52 3c 85 5f 46 3e
       0.027060037 -0.07468504 0.012834072 0.19372375
000030 e8 09 17 3e a0 0b 2c 3e b9 44 f3 3d a4 ac dc bd
       0.14749873 0.1680131 0.11878342 -0.10775116
000040 24 5a 07 3e b6 bc 90 3d 46 27 ca bc 5e 3c 31 bb
       0.1321798 0.07067244 -0.02467693 -0.0027044038
000050 ce 4f 0a be ae 72 1b bd 03 32 09 3e 6b de 3d 3e
       -0.13507006 -0.037951164 0.13397984 0.18541877
000060 99 b1 89 3c 73 24 27 be ec 73 66 3c d6 52 35 bd
       0.016808318 -0.16322498 0.014065724 -0.04426845
000070 3a a1 28 3c 34 a0 2a 3e 16 8d 8e bd eb fd a8 bd
       0.010292346 0.16662675 -0.06960504 -0.08251556

W_k.1.weight f4 [32, 32]
000000 1f 52 ab 3c bd a9 6d 3e e7 d7 00 3d 31 dc 41 be
       0.020913182 0.23209281 0.0314559 -0.18931653
000010 50 46 55 bb 4e 7b ad bd f5 76 12 bd 99 af 17 3e
       -0.003254313 -0.08470784 -0.035757978 0.14813079
000020 59 71 aa 3a 8d 60 80 bd 87 5f aa 3d 51 5c a4 3d
       0.0013003751 -0.062684156 0.08319002 0.080254205
000030 9e 6a d0 3d bb 60 83 3e 11 1e dc bd 05 0e b6 3c
       0.101765856 0.25659737 -0.10747922 0.022223482
000040 ff db ff bd d7 c1 9d bd af 89 9a 3d 00 4e 37 be
       -0.12493133 -0.07702988 0.07545792 -0.17900848
000050 56 b4 73 be d1 e6 ec 3d bb 89 51 be ef ba b0 bc
       -0.23799261 0.11567462 -0.20462696 -0.021573512
000060 e4 a9 b4 be 89 9c d3 bb 1c fe c1 3d 45 4c f7 bd
       -0.35285866 -0.0064578694 0.09472296 -0.12075094
000070 00 23 91 be 30 47 2e 3e 88 90 9b bb 42 d9 1a 3d
       -0.28347015 0.17019343 -0.004747454 0.03780485
000080 9b ec 83 bb fd 2f 4e 3e 72 64 36 3e 99 c4 15 be
       -0.0040260083 0.20135494 0.17811754 -0.14625777
000090 56 18 68 3e 29 dd 3f be 1d 6d 7a 3c e1 d6 ac 3d
       0.22665533 -0.1873671 0.015284804 0.084394224
0000a0 9d 67 10 bd cc 75 bf 3d e9 a8 33 3e 95 e5 01 3e
       -0.035255063 0.0934864 0.17544903 0.12685235
0000b0 e6 b6 36 3e f6 66 10 be 1f b3 dd bd 3b 30 2f bd
       0.17843208 -0.14101776 -0.1082518 -0.042770606
0000c0 d4 8f 59 be 21 84 b6 3d 29 80 a1 3d df 96 11 3e
       -0.21246272 0.0891192 0.07885773 0.14217709
0000d0 fb f9 14 bd 53 d2 35 be 5e 20 42 be 59 50 eb bd
       -0.036371212 -0.17756014 -0.1895766 -0.114899345
0000e0 34 16 2b be 07 8d 62 be 44 c8 8d be 30 b6 5d 3d
       -0.16707689 -0.2212411 -0.27691853 0.054128826
0000f0 9b d7 e4 bc cb 93 80 3e 8e 6c b1 bd 92 12 e4 3c
       -0.02793484 0.25112757 -0.08663283 0.027840886
000100 2b be 6e 3e 0f 41 b6 be d0 54 3c be 6c d0 52 3d
       0.23314731 -0.3559651 -0.18391728 0.051468298
000110 81 ca 56 be 84 68 51 3d 37 33 2f bd 9d 94 46 be
       -0.20975687 0.051125064 -0.04277345 -0.19392629
000120 1e f1 c0 3d 9e 5e 98 bd a9 50 ce bb 89 8e de bd
       0.094209895 -0.07439922 -0.0062962365 -0.1086703
000130 ba 50 16 3d 4f 16 b8 3d af 73 e3 3d 5f 7f 1d 3e
       0.03669808 0.0898863 0.11106049 0.1538062
000140 7c 0a c6 3d c0 ab 59 3e ba a4 05 bd ad 8a 1f be
       0.096699685 0.21256924 -0.0326278 -0.15580244
000150 f3 f0 2b 3e 49 71 94 bd a3 fb 49 3e 79 0a b3 3d
       0.16791134 -0.0724817 0.19724898 0.08742232
000160 fe 44 90 3e a2 2d e5 3d 7f f6 84 3e 18 c2 23 be
       0.28177637 0.111903444 0.25969312 -0.1599201
000170 98 67 93 3e 3a 30 20 3e 2e 13 85 3d 52 da 0b be
       0.28789973 0.15643397 0.06497799 -0.13657501
000180 86 e6 59 3d ef 0c 9e 3e cb bd d9 bd 46 69 a4 3d
       0.05319836 0.30869243 -0.10631903 0.08027892
000190 70 99 99 3e 9b 71 84 be 76 4c a0 bd a1 00 ce bd
       0.29999876 -0.25867924 -0.07827084 -0.10058714
0001a0 3f 63 ea 3d ca 41 12 bd 7a 02 d7 3d 1b a9 89 bd
       0.11444711 -0.035707273 0.10498519 -0.067217074
0001b0 c5 fc 46 3e 01 7d c0 3d d8 cf cf 3d a4 62 5a bc
       0.19432361 0.093988426 0.10147065 -0.013329182
0001c0 67 ef ec bd 41 09 1b be 2e 7c 48 3e 34 2e 2d be
       -0.115691 -0.15140249 0.19578621 -0.16912156
0001d0 fe 4f 14 be 1a 92 19 3d 2e 58 66 3d 28 e1 ae bc
       -0.1448364 0.03749285 0.05623644 -0.021347597
0001e0 d0 f8 ea be bb c1 3e be 39 74 26 3d af 7f c0 bd
       -0.45892954 -0.1862859 0.040638182 -0.09399354
0001f0 f8 28 42 be 35 95 31 be 2a e1 e8 bc df 62 4b bc
       -0.18960941 -0.17342074 -0.02842768 -0.012413709
000200 70 12 9c 3c ef 76 03 bc 4a 64 02 3e b1 1f 9c bd
       0.01905176 -0.008023961 0.1273357 -0.07623232
000210 c9 33 f2 3d 54 b1 9c bd 09 66 10 3d 9d 92 f0 3d
       0.118262835 -0.0765101 0.03525356 0.11746714
000220 29 26 af bb 5d bc cd 3d 9e 93 02 3e 13 4d 2d be
       -0.005345125 0.10045693 0.12751624 -0.16923933
000230 cb 99 f7 3d 84 a0 e0 bb f2 f7 35 be b9 5b c7 3c
       0.120898806 -0.0068550725 -0.17770365 0.024335729
000240 98 67 25 bd 48 58 f4 3d 6c 50 86 3e bd c7 15 3e
       -0.040381998 0.11930901 0.26233232 0.14626975
000250 a2 e6 9c be 0a 9f 2a be 50 d3 2b be e4 37 cf bd
       -0.3064471 -0.16662231 -0.16779828 -0.10118082
000260 d9 73 30 be 75 fb a4 3d f5 e7 76 bd 22 95 03 be
       -0.17231692 0.08055774 -0.060279805 -0.12849858
000270 b3 f7 77 bd c9 e4 44 3e b1 0a 5e 3c a6 30 95 be
       -0.06053896 0.192279 0.013552354 -0.29138678
000280 8c f5 51 3e 66 cf a2 be 0e 87 71 3d 63 c4 32 3e
       0.20503825 -0.31798857 0.05896669 0.17457728
000290 a9 92 18 be 95 4f 26 be b0 6f 4e be 52 84 4c be
       -0.14899696 -0.16241296 -0.20159793 -0.19972351
0002a0 26 d3 0b 3e 48 0c c4 bc 28 47 01 be da df 12 be
       0.13654765 -0.023931637 -0.126248 -0.14343205
0002b0 85 89 c5 bc e0 bc ea bd 42 3d e8 bd 24 1e ca 3d
       -0.024113426 -0.11461806 -0.11339809 0.0986903
0002c0 ec 51 34 3d 24 ba f1 3c 77 0d 30 bd c0 47 78 3b
       0.04402344 0.029507704 -0.04298159 0.0037884563
0002d0 86 14 66 3c 80 b2 07 3e 34 c7 76 3e c2 93 03 bd
       0.014042979 0.13251686 0.24099427 -0.032123335
0002e0 65 69 55 3e 97 51 56 3d c4 db 24 3e 41 c7 d7 3d
       0.20840986 0.052323904 0.16099459 0.105360515
0002f0 8e ab 63 3e 64 3e 62 be 75 3a 26 be 5d 77 8e 3e
       0.22233412 -0.22094113 -0.16233237 0.27825442
000300 73 54 6d 3e 66 95 0b 3e c6 1a f1 bd 12 8f 9d 3d
       0.23176746 0.1363121 -0.11772685 0.07693304
000310 fa c9 98 bd 56 75 de 3d 57 39 b9 be ca cd a3 bc
       -0.07460399 0.10862224 -0.3617656 -0.019995589
000320 3d 54 23 3e 2f e8 d5 3d da 97 3b be 12 cd c2 3d
       0.15950103 0.10444676 -0.18319646 0.0951177
000330 db 68 0e be 3d 39 05 3e 31 58 7c 3e 49 28 c0 bd
       -0.13907187 0.13010116 0.24643017 -0.09382684
000340 aa 4d 2c 3e b0 04 4a bd 8d 64 87 be 2b b4 79 be
       0.16826501 -0.049320877 -0.26443902 -0.24385135
000350 6e 22 75 3e e3 fd 6a bd 20 ea 05 be 09 44 e9 3d
       0.23938915 -0.05737103 -0.13077593 0.1138993
000360 fc d8 dd 3d d7 2d 6e bc 6e 03 58 3e b2 cd 4d 3e
       0.10832402 -0.014537296 0.21095058 0.20097998
000370 d5 5e 59 bd ab 45 13 3d fd 6f 3e be c8 b2 5b 3e
       -0.053068954 0.035955112 -0.18597408 0.21454918
000380 ae 8a 52 be 29 38 31 3e 3c c2 e4 3d 73 c0 9b be
       -0.20560715 0.1730658 0.1116986 -0.30420265
000390 15 e9 88 3e c3 06 07 be 3e 1c cf bd e8 26 29 3d
       0.26740327 -0.13186173 -0.10112809 0.04129687
0003a0 b5 de 14 be 4b 76 1c bd 26 62 2d bd 1d a6 78 bd
       -0.14538081 -0.03819875 -0.04232993 -0.060705293
0003b0 d7 49 48 3e 87 c7 3e 3d af aa 21 be 8e 0e 68 3c
       0.19559418 0.046577003 -0.15787767 0.014163626
0003c0 4b a8 49 be cd 87 1a be 3f 2a 7b 3e 87 58 20 3e
       -0.19693105 -0.15090866 0.24527834 0.1565877
0003d0 cd 4c 9d 3c aa 5f 12 3e 96 5c 8b bd 8c 5b 1c bb
       0.01920166 0.14294305 -0.06804769 -0.0023858277
0003e0 8a 7e 87 be 4a 94 f0 3d ad da 1e be 4a 5f 07 bc
       -0.2646373 0.11747034 -0.15513106 -0.008262465
0003f0 a4 26 14 bd b6 32 d1 bd 76 52 30 3d 06 1b 7b bd
       -0.036169663 -0.102147505 0.04304739 -0.06130507

W_k.1.bias f4 [32]
000000 a2 cf 06 be e5 4f 57 3b e4 6d 44 bd 86 a3 b2 3d
       -0.13165143 0.0032854017 -0.047956362 0.08722596
000010 6a 16 e3 bc f2 c9 c8 bd 5f 03 67 3d bd 53 40 3d
       -0.027720649 -0.09804143 0.0563997 0.04695486
000020 38 54 08 bd d0 ec 8a bd a4 5d 79 3c 80 30 06 3e
       -0.033283442 -0.0678345 0.01522008 0.13104439
000030 7a a0 aa 3d 63 8d e8 bd 65 f5 04 3d c4 40 d9 bd
       0.0833139 -0.113550924 0.03246059 -0.10608056
000040 65 4d da 3c 19 73 67 3d 1b dc df bd c3 bf 09 3e
       0.026648233 0.05650625 -0.10930654 0.13452058
000050 2c 70 57 3b 19 69 e7 3d f5 28 17 3e 9d b7 b3 bd
       0.0032873256 0.11299343 0.14761718 -0.08775256
000060 9a 9d 7e 3d da 53 4a 3d f3 ff 06 be 4b 38 1f 3d
       0.06216202 0.049396373 -0.13183574 0.038872045
000070 be c1 d5 bd 53 0f d4 3c 44 5f 91 bc 08 7f a6 3d
       -0.10437344 0.025886213 -0.017745622 0.08129698
