artifacts/trained_model.pth (torch, 91126 bytes, 37 tensors)

pos_embedding f4 [1, 16, 32]
000000 1d 6f 95 be e2 05 73 3f 22 54 44 bf 3e a2 d9 3e
       -0.29186335 0.9493085 -0.76690876 0.42506593
000010 70 92 e4 3d c4 a4 bf 3e 09 ed d3 be a8 96 38 3f
       0.11160743 0.37430394 -0.4139178 0.72104883
000020 5c 56 1c 40 35 c2 12 c0 6b b3 44 bf fd 09 d1 bf
       2.442771 -2.2931035 -0.7683627 -1.6331173
000030 d0 b0 97 3e 60 2f f6 be 76 a0 60 3e 3b e4 92 3f
       0.29627085 -0.4808302 0.21936211 1.14759
000040 0e dd 80 3d 38 99 fc bd 32 9f 7e bf d9 d4 28 be
       0.06292163 -0.12333912 -0.9946166 -0.16487445
000050 78 2f a1 3f 51 ed 07 40 87 98 4b bf c6 7b ee 3e
       1.2592611 2.1238596 -0.79529613 0.46578807
000060 7c d9 8a 3e e1 86 56 bf 23 1e e1 be fd fb 9f 3f
       0.27119052 -0.8379956 -0.43968305 1.2498776
000070 bd 90 86 3e 13 a2 62 bf 85 6d 41 be 7b 74 28 3f
       0.26282302 -0.88528556 -0.18889435 0.65802735
000080 45 a8 8d bf be 47 3e be d3 ea fa bd 27 70 73 bf
       -1.1066977 -0.18582055 -0.122518204 -0.95093006
000090 e2 97 1d bf 3c cc ab 3f a4 20 0c bf 83 65 2f 40
       -0.6155988 1.3421702 -0.54737306 2.7405708
0000a0 34 1a 00 bc 7c 3d 2c 3e 39 c3 32 3e 11 8e 92 be
       -0.007818747 0.1682033 0.17457284 -0.28624013
0000b0 f6 d7 32 3f a2 89 80 bf 8d f3 8a 3f c1 69 9c 3e
       0.6986078 -1.0042002 1.0855576 0.30549434
0000c0 86 c5 d3 be 08 f0 4c bf 02 a9 9c bf c0 2c 04 c0
       -0.41361636 -0.8005376 -1.2239077 -2.0652313
0000d0 e1 1b 0c c0 4b c1 39 3f cc 0b 95 bf 85 fa 45 be
       -2.1892016 0.72560567 -1.1644225 -0.19333847
0000e0 1b 20 15 bd 2c 8d 93 be 62 1c 94 bf 0e 66 b2 be
       -0.03640757 -0.28818643 -1.1571162 -0.34843487
0000f0 fd 36 0e bf 79 7c 0a 3f 99 e3 03 3e 34 dd 07 3e
       -0.55552655 0.5409618 0.1287979 0.13267976
000100 e8 94 b0 3f b2 60 aa be ff ed 79 3f a3 ac 91 bf
       1.3795443 -0.33276898 0.9762878 -1.138081
000110 89 40 40 3f 87 4f 5e bf 10 34 a6 bf 7e 30 d5 3e
       0.7509847 -0.868401 -1.2984638 0.4163856
000120 c3 ab 80 3f 80 ba c1 3e 22 50 02 3f 09 6d 3a 3e
       1.0052418 0.378376 0.5090352 0.18205656
000130 4d 8f f2 be 9d ac 6c 3f ac fd d4 3c 84 b6 d7 3f
       -0.47374955 0.92450887 0.025999866 1.6852574
000140 ae 98 c3 3f d8 f2 da be 39 9d 14 bf 32 b1 46 3f
       1.5280969 -0.427634 -0.580524 0.7761413
000150 4c ab a5 bf ec 3a db 3e 5f 3c 08 c0 65 c0 57 bf
       -1.2942901 0.4281839 -2.1286848 -0.84277946
000160 f4 73 b0 bd 1a 5a 57 bf c2 4d 29 bc 66 22 0e bd
       -0.08615866 -0.8412186 -0.01033348 -0.034700774
000170 7c ba fe 3d 55 cf 4a be f6 8b 66 3e d8 0f 02 3f
       0.12437913 -0.19805653 0.22514328 0.50805426
000180 eb a4 e0 bd a0 20 d3 3e 35 ba 99 be 55 14 84 3f
       -0.109689556 0.41235828 -0.30024877 1.0318705
000190 83 8f 53 3f a7 84 85 bf 5b 28 89 bf c7 46 12 bf
       0.82640857 -1.0431107 -1.071544 -0.5713925
0001a0 3d 00 c9 bd b9 d1 0a 3f 78 b8 0e 3f e1 df 6d be
       -0.098144986 0.5422626 0.55750227 -0.23229934
0001b0 31 eb 34 bf 5c 4b 1a bf c8 46 94 be 95 a0 1a 3f
       -0.70671374 -0.6027124 -0.28960252 0.6040128
0001c0 f6 d3 bb bf 66 b3 f0 be 2a a8 0d 3e e8 77 de 3e
       -1.467406 -0.4701187 0.13833681 0.43450856
0001d0 ac 15 27 bf 4c 9a de 3e 7a b8 30 3f 3e 1b 7e bf
       -0.65267444 0.43477094 0.6903149 -0.9926032
0001e0 7d c9 42 bf 38 2b 9e 3e 1f f0 03 3e 99 b2 59 3f
       -0.76088697 0.30892348 0.12884568 0.85038143
0001f0 38 70 29 3e 0c 9e 21 bf 7c 1e df 3e c2 5c af 3d
       0.16546714 -0.63131785 0.43577945 0.08562614
000200 10 2c 17 be a2 d7 45 be 01 da 10 3f e7 34 6d 3c
       -0.14762902 -0.19320539 0.5658265 0.014477945
000210 64 01 94 3f c5 27 51 bf 7e 68 66 bf 4c ec c2 bf
       1.1562924 -0.8170131 -0.9000319 -1.5228362
000220 18 3a 27 be d6 44 38 3f 6d 4b a9 be aa f3 d9 3c
       -0.16330755 0.71980035 -0.33065358 0.026605446
000230 d7 87 73 3f 09 7f ca be 46 de 70 bf aa ff 6b 3f
       0.9512915 -0.39550045 -0.9408916 0.9218699
000240 00 d9 51 3e 67 7b 74 bf be 0a a4 bd fe 52 0f 3f
       0.20492935 -0.955008 -0.080098614 0.5598601
000250 d7 71 4e 3f 72 c5 64 bf cf 43 4b 3f 35 c7 f0 bf
       0.80642456 -0.8936378 0.7940034 -1.8810793
000260 c1 87 ec bd 55 78 b7 3f 38 ac 8f 3f b0 46 67 3f
       -0.115493305 1.4333597 1.1224432 0.90342236
000270 ec 1e 82 3f 50 fb ce bf 1c 40 ad 3e a6 d3 1f bf
       1.0165687 -1.6170444 0.33837974 -0.62432325
000280 1a fb 28 3f 96 94 24 3e 02 62 c8 bf 9c 28 08 c0
       0.6600815 0.16072306 -1.565491 -2.1274786
000290 b7 8e 33 3f 97 f8 95 be 35 57 8a 3e 97 38 bd bf
       0.7013964 -0.29291221 0.2701966 -1.4782895
0002a0 61 be 62 bf 26 60 83 bf 95 ef 78 3e 3d 9f 1a c0
       -0.88571745 -1.0263717 0.24310143 -2.4159691
0002b0 95 78 8e be 6d 4c 94 bf b7 46 f4 bd a5 ac 13 3f
       -0.27826372 -1.1585823 -0.1192755 0.5768531
0002c0 5b c6 16 bf a6 25 54 be a5 e7 89 bf 48 ae 8a bf
       -0.58896416 -0.20717487 -1.0773817 -1.0834436
0002d0 f0 5a 0b 3f db 25 a4 3e 2e e5 3f 3f 3b 8c 37 3f
       0.54435635 0.3206013 0.74959075 0.7169835
0002e0 ec 73 a6 3d 8d 38 01 bf 98 3f 76 bf 3a 38 db 3f
       0.08127579 -0.50476915 -0.96190786 1.7126534
0002f0 1d 46 27 bf ef 49 a9 bf b0 7b 49 3e 5f 35 1a bf
       -0.6534136 -1.3225688 0.1967609 -0.6023769
000300 b2 82 c0 3e 26 c6 b0 3f b9 9d 8e bf f4 b9 f7 be
       0.37599713 1.381047 -1.1141883 -0.48384058
000310 4c ce 4c be 54 ff aa bf ff e4 f5 bd 08 d3 d5 bf
       -0.20000571 -1.335917 -0.12006568 -1.6705027
000320 24 a3 a1 bf e3 fc 94 be 98 b8 58 bf bc c5 78 bf
       -1.2627912 -0.29099187 -0.8465667 -0.9717672
000330 35 23 19 bf 4d 45 58 3e be b3 d6 3e 27 29 bf bf
       -0.59819347 0.21120186 0.41934007 -1.4934434
000340 34 fc 73 bf 3f 28 2b 3f 89 e3 e4 3b 04 f6 a1 bf
       -0.95306706 0.66858286 0.006985132 -1.2653203
000350 bc e0 84 3f 59 34 b8 be d4 3c 2d c0 38 ea 94 3f
       1.0381083 -0.35977438 -2.7068377 1.1633978
000360 70 dc 14 3f f8 0b 00 bf 09 a4 2b 40 7f 78 07 bf
       0.5814886 -0.5001826 2.681887 -0.5291824
000370 b3 ca 4d bf 3c da 2f bf 72 36 d2 be 54 d0 d1 3f
       -0.8038742 -0.68692374 -0.41057163 1.6391702
000380 61 33 ed be c3 88 3a be 84 87 e5 3f d3 52 c8 be
       -0.46328261 -0.18216233 1.7931981 -0.3912569
000390 53 a3 b0 bf dd 88 15 3f e5 9f 8b bf 57 6a 4e be
       -1.3799843 0.5841196 -1.0908171 -0.20157753
0003a0 e5 14 03 3f dc 49 ae 3e 48 86 30 3f cb c7 e1 bf
       0.5120376 0.34040725 0.68954897 -1.7639097
0003b0 44 2d 1b 3f 41 54 c8 3e 6a 8b 4c bf 59 0b 2a 3f
       0.60615945 0.3912678 -0.7990023 0.66423565
0003c0 64 4b e9 bf cf da eb 3e 8e c5 3a bf b4 49 8c be
       -1.8226132 0.46065375 -0.72957695 -0.2739998
0003d0 ef f1 bb 3e ad a9 74 bf 77 bf 1b 3f ee 74 8e bf
       0.36708018 -0.95571405 0.6083903 -1.1129434
0003e0 8e 03 8c 3f e2 58 06 bf 8d 98 7e 3f 26 20 a1 be
       1.0938585 -0.52479374 0.99451524 -0.3146984
0003f0 9a ac 44 bd bf 4d 25 3f f4 de b0 bf df 13 b0 3e
       -0.04801617 0.64571756 -1.381804 0.3439016

patch_embedding.weight f4 [32, 49]
000000 2e d4 b0 bd 31 d7 31 3c be 54 44 3e 75 89 55 3e
       -0.0863422 0.010854528 0.19172952 0.20853217
000010 37 a9 08 3e 72 81 81 3d 71 9f ca 3d 5b e5 89 bd
       0.133458 0.06323518 0.09893692 -0.06733199
000020 0e e6 1a bc ac 77 ee bd 31 1d 2a 3d 6b 68 f3 bc
       -0.009454263 -0.11643919 0.041531745 -0.029712876
000030 7c d1 ba 3d 23 4d 85 3e 35 d9 4b be d4 f6 e5 bd
       0.09121987 0.26035413 -0.19907077 -0.11228719
000040 ec a7 88 be f3 7b a2 bd 87 0e 5a bc 86 7b 94 3c
       -0.26690614 -0.07933798 -0.013309128 0.018125307
000050 eb e2 0f 3d 94 6f 80 be a5 39 17 be f5 d1 74 be
       0.035128515 -0.25085127 -0.14768083 -0.23908217
000060 e6 85 8d be 7b ee 6f be d0 eb 90 be 82 85 97 be
       -0.2764122 -0.23430817 -0.2830491 -0.29594046
000070 e4 33 03 be 5e 71 9a bd dc d8 88 bb 37 43 aa bd
       -0.12812763 -0.07541154 -0.0041762423 -0.083136015
000080 53 e1 1b be a4 15 ad be f2 4a 3f be ee 6a de bd
       -0.15222673 -0.33805573 -0.18680933 -0.10860239
000090 d2 1a 1a be 7c ad 87 bd 1a 54 d0 bd 3b bb 0b 3d
       -0.15049294 -0.066248864 -0.10172291 0.034114104
0000a0 3f b3 3e bd 0f be f2 3b 37 86 35 bd ba be b7 3d
       -0.04655766 0.0074079107 -0.04431745 0.08971925
0000b0 61 b8 ed 3d 78 ba 3b 3e d3 de ce 3d 32 b2 4d 3e
       0.11607433 0.18332851 0.10101094 0.20087507
0000c0 ce 3b 9f 3d c5 d6 c1 bd b7 bf c5 3d 3b 89 b6 bc
       0.07775079 -0.09464792 0.09655707 -0.022282233
0000d0 77 32 d4 3d 0f 1b 38 3e 0d 6b de 3d cf 23 3c 3c
       0.10361188 0.17979072 0.10860262 0.011483147
0000e0 c7 52 33 bd e1 6f 37 bd bf 47 a7 3c ae ac ec 3d
       -0.043780115 -0.04478443 0.020419953 0.115563735
0000f0 01 5b e1 bd f2 83 e6 bd ce 18 b5 3d 0d 74 20 be
       -0.11003686 -0.11255635 0.08842622 -0.1566927
000100 08 0f c6 bd 7a 9a 0a be 6f 53 ac bd c1 f4 44 3d
       -0.09670836 -0.1353549 -0.08414351 0.048084978
000110 9d eb 9d 3d 56 b6 66 bd 5e 69 68 be 3a e5 1d be
       0.07710955 -0.056326233 -0.22696444 -0.15419474
000120 00 ed eb bc 29 f4 5d 3c 00 15 83 3d c3 d2 27 3e
       -0.028799534 0.013546982 0.0640049 0.16388993
000130 13 89 05 3f 4b ac b2 be 07 55 4c bd 2f 27 cb bc
       0.52162284 -0.34897074 -0.049885776 -0.024798958
000140 e4 7e c8 3b a4 53 8c 3e b8 b4 b5 3e e5 f9 c3 3e
       0.006118642 0.27407563 0.3548944 0.38276592
000150 92 0d c0 bd d9 86 6b 3c cc 9e 20 3d c7 f9 3f 3e
       -0.09377588 0.014375412 0.03921394 0.18747626
000160 a1 8f 89 3e be 07 01 3e a6 f1 5a 3e bb 4b e4 3d
       0.26867393 0.1260061 0.21381244 0.11147257
000170 1e 76 3c 3e 5a ab 86 3e 44 8d 61 3e 94 66 eb 3d
       0.18404433 0.26302606 0.22026545 0.114941746
000180 46 26 d5 3c 5b e1 b1 3c 50 52 c5 bc af 49 08 3d
       0.026019227 0.021713903 -0.024087101 0.033273395
000190 89 9b 35 3e ec e1 8a bc 5e 29 6d be cf d4 b3 bb
       0.17735113 -0.016953431 -0.23160312 -0.0054880152
0001a0 12 5d 92 be fa b3 64 bd 52 2b 11 3e 58 e3 ef 3c
       -0.28586632 -0.0558357 0.14176682 0.02928321
0001b0 36 90 44 3c be d4 e4 3d 37 71 fc 3d bf 2a 9c 3a
       0.011997273 0.1117339 0.123262815 0.0011914595
0001c0 82 96 4e 3e 55 a9 54 3e 5b aa c6 3d cb 40 22 3d
       0.20174602 0.2076772 0.097004615 0.039612573
0001d0 80 2d 77 3d b5 c8 ce 3d a3 76 e9 3d 49 6c 7a 3e
       0.060346127 0.100968756 0.11399581 0.2445537
0001e0 7a 62 93 3e 58 94 4e 3e e8 4d 8e 3e 85 d0 57 3e
       0.2878607 0.20173776 0.27793813 0.21075638
0001f0 9b 09 e1 bd 8e 1b 6a 39 8d 65 33 3e 02 47 31 3e
       -0.1098816 0.00022326244 0.17519207 0.17312244
000200 de 91 b8 bb ec d3 78 bd 62 92 98 bd e4 9b 46 be
       -0.005632623 -0.06074898 -0.07449795 -0.19395405
000210 3d 6e ba bd ac 09 6f 3e 13 07 04 3e 32 41 b1 bc
       -0.091030575 0.23343533 0.12893324 -0.021637533
000220 d7 8d b3 bd 3c 23 70 be 2e 5d 94 be 02 13 db bd
       -0.08767288 -0.23450941 -0.2897734 -0.10696985
000230 8a 88 7c bd 36 ba 6c 3b 53 54 20 be 4e bb f5 bd
       -0.06165365 0.0036121733 -0.15657167 -0.11998616
000240 59 29 0e be b9 a9 06 be 32 2f 5a be 0c 81 65 be
       -0.1388296 -0.13150682 -0.21307066 -0.22412509
000250 0e 96 11 be 19 c6 d7 bc 98 df aa bd 78 73 9c 3b
       -0.14217398 -0.026339578 -0.083434284 0.004774507
000260 46 ad 23 3e 9a 10 17 3e 84 a1 b8 3d ad be 8e bd
       0.15984067 0.14752427 0.09015182 -0.06969962
000270 6d 94 e5 3d eb 7e 59 3d ac d2 72 3e 66 b6 02 3e
       0.112099506 0.053099554 0.23713177 0.12764892
000280 33 9b 8a 3e ae 5d d6 bc ef dd 3a 3e 00 09 21 3e
       0.27071533 -0.026167717 0.18248723 0.1572609
000290 70 c7 8b 3e 00 0d 12 3e 59 ad a6 3d da 58 ae 3e
       0.27300596 0.14262772 0.08138532 0.34052163
0002a0 91 f4 74 bb 9a 02 90 3d dc 4a 0a 3e 7b 1b 3f 3c
       -0.0037377218 0.07031746 0.13505119 0.011664267
0002b0 37 a8 25 3e c4 5c 60 3d f4 b2 0a 3e b0 5d ca 3c
       0.1617745 0.05477597 0.13544828 0.024702877
0002c0 fc 70 29 3e 2e 45 3a 3d 54 34 cc bb 29 aa 37 3d
       0.16547006 0.04547613 -0.006231824 0.04484001
0002d0 56 e8 77 3e b6 c9 8f 3e f6 f9 27 3e f6 95 83 bd
       0.24209723 0.2808358 0.16403946 -0.06425087
0002e0 22 e6 77 3e c5 65 74 3e d0 b1 90 3e 7c 73 ee 3d
       0.24208882 0.23866947 0.2826066 0.11643121
0002f0 69 02 6f 3e 5a 4c cc 3d e5 d0 22 bd 5d 16 d1 3d
       0.23340763 0.099755004 -0.03975 0.102093436
000300 1f 3c 8c 3d ef 47 85 bd 66 4c 8d 3d 03 7b 37 3e
       0.06847405 -0.06507861 0.068993375 0.17918019
000310 42 2b 48 3e c3 e0 82 3e 53 53 60 bd aa 21 e1 3d
       0.19547752 0.25562105 -0.054766964 0.10992749
000320 1a d4 64 bb 90 5e a7 bd 84 0a c3 3d 43 39 25 3e
       -0.0034916461 -0.08172333 0.0952349 0.16135125
000330 f8 c2 93 3c 71 87 c5 bd 3d 45 96 bd 20 66 06 3d
       0.018037304 -0.09644974 -0.07337425 0.032812238
000340 88 26 95 bc 17 46 d4 bd 27 e6 99 3e 3c e3 16 3e
       -0.01820685 -0.10364931 0.30058405 0.1473512
000350 70 d1 06 3d 1d 67 4d be c7 82 8b bc 98 7d b6 3c
       0.03291458 -0.20058866 -0.017030133 0.022276685
000360 22 66 c7 3d 73 78 68 3e 13 2d 0a bd cb a1 ee 3c
       0.09736277 0.22702198 -0.033734392 0.029129883
000370 7f 5a 5e be 7e 9d 25 3b 9c 31 7a be e4 08 2e 3d
       -0.21714209 0.0025270875 -0.24432987 0.042488948
000380 0c 9b d8 3d cb a0 33 bc fe 04 37 3c b4 30 08 3d
       0.10576448 -0.010963629 0.011170624 0.033249572
000390 cb 45 d8 bc 2e e0 44 be e8 32 22 3c 3f 11 0d 3e
       -0.026400467 -0.19226143 0.009899832 0.1377611
0003a0 1c e2 78 3c a8 12 ec bd 8a 84 dc bd e8 8a bc 3c
       0.015190627 -0.11526996 -0.10767467 0.023015454
0003b0 51 74 67 be 34 dd f7 3d 6a 88 06 3e e7 bc 4b be
       -0.22602965 0.12102738 0.13137975 -0.1989628
0003c0 1a 0a 8d bd 5d f7 26 bd 57 d7 22 bd 08 e7 e5 3a
       -0.06886692 -0.040763248 -0.039756145 0.0017540166
0003d0 2c ca 0d be 2e 12 d1 3d e3 07 5e 3c b1 21 cd 3d
       -0.13846654 0.102085456 0.013551685 0.10016192
0003e0 a4 4d 1b 3e 7d d9 37 3e d4 af 1c 3e 63 fb b3 3e
       0.15166336 0.17954059 0.15301448 0.3515273
0003f0 c2 fd 1e 3e 20 44 70 3e 3f e7 96 3e 41 69 50 3e
       0.15526488 0.23463488 0.29473302 0.20352651

patch_embedding.bias f4 [32]
000000 59 76 99 bd fc d1 a3 bb a8 ff 7f 3d 42 80 dd bd
       -0.07493276 -0.0049993973 0.062499672 -0.10815479
000010 bd 0a ba 3c ee b0 13 be 1f 63 b8 3d 05 a0 21 3e
       0.022710199 -0.14422962 0.09003281 0.15783699
000020 d8 2a 6f bd 37 d6 2f bd 4b f2 81 3c 74 dd f9 3d
       -0.05839047 -0.0429289 0.015862605 0.12200442
000030 87 68 cc 3d 3b a6 14 be b8 f9 02 bc 1f a5 9f 3d
       0.099808745 -0.14516537 -0.007994108 0.07795166
000040 79 4e 0b 3c 43 9d 5b 3c 1c 18 04 bb 9f a8 fc 3d
       0.008502596 0.013404193 -0.0020155972 0.123368494
000050 76 3d da 3d 36 00 7b 3d b1 f9 d0 bb 44 25 8a bc
       0.10656254 0.061279498 -0.006377422 -0.016863473
000060 aa cf d7 bd f6 2e 0c 3e c4 ed a8 3d 7e 98 be bd
       -0.10537656 0.13689789 0.08248475 -0.09306429
000070 2c 1d 82 3c d9 2e f0 3c 00 d4 89 bd 7a 6b a4 bd
       0.01588305 0.029319214 -0.06729889 -0.08028312

encoder_layers.0.W_q.weight f4 [32, 32]
000000 2a 73 4c bd e7 aa 14 3e 40 01 22 3d 95 63 10 bd
       -0.049914517 0.14518319 0.039551973 -0.03525122
000010 ca 1b 26 bd 7d a6 91 be 41 69 00 be c5 54 57 be
       -0.040553845 -0.28447333 -0.12540151 -0.21028431
000020 86 da 4f be a9 7d 7b 3e df e6 87 3e a4 85 09 3d
       -0.20298204 0.24559654 0.26543328 0.033574715
000030 dc 91 cc bd 6c 67 7b be a5 28 c8 3d 3a 8d 02 3c
       -0.09988758 -0.24551171 0.09773377 0.007968241
000040 46 24 0a 3c a7 58 f7 bd 8f 81 91 bd 02 a6 de bd
       0.0084315 -0.12077456 -0.071047895 -0.10871507
000050 fe 88 35 3e 51 5f bd bb 19 77 76 3d 77 d0 c5 3d
       0.1772804 -0.005779185 0.060172174 0.09658902
000060 fa d8 06 be e1 fd 21 3e bd 5e 5b 3e 4d 51 06 3e
       -0.13168707 0.15819503 0.21422859 0.13116951
000070 c6 ea 1c 3e ea f6 23 3e 0c ad 96 3d b3 c1 60 bd
       0.15323934 0.16012159 0.07357225 -0.054872226
000080 02 de f6 bd 6e 6f 95 be b9 05 95 3d 72 7c 21 3e
       -0.120540634 -0.29186577 0.07276482 0.15770128
000090 a8 f0 da bd de da 00 3d 1a ea 57 bc 5f a3 a1 bd
       -0.10690433 0.031458728 -0.013178373 -0.07892489
0000a0 f1 f0 43 be 11 ec 4c 3e e5 8d 16 bd fa 25 93 bc
       -0.1913488 0.20011927 -0.036756415 -0.017962445
0000b0 3e dd 2d bc ad 92 34 3c 29 7f 6c be dc aa 04 bd
       -0.01061183 0.011021298 -0.23095383 -0.032389507
0000c0 6b 5b 36 3d bd cc 36 3e 85 38 b7 3d 84 03 2e 3d
       0.044520777 0.17851539 0.08946327 0.04248382
0000d0 62 eb 0a be 08 29 82 bd 52 4f a7 3e 68 ad 9f bd
       -0.13566354 -0.06355482 0.32677704 -0.077967465
0000e0 5d e7 00 3e 85 61 97 3e ab 48 be 3c c6 eb e7 bd
       0.12588258 0.2956659 0.02322801 -0.11324267
0000f0 03 c0 19 3d 5b a2 c9 bd 7f b7 0c 3e 95 62 f1 39
       0.037536632 -0.0984542 0.13741873 0.0004604055
000100 14 90 50 3e 90 19 21 3d 66 23 4f bd 9b ad be bd
       0.20367461 0.03933102 -0.050570868 -0.09310456
000110 d6 fb 08 3e 24 c7 8f be 67 e5 58 be 39 b7 e5 3d
       0.13377318 -0.2808162 -0.2118126 0.112165876
000120 a9 70 ea bd 15 29 6a bc e2 6e 65 be 40 06 59 3d
       -0.114472695 -0.014292021 -0.2240558 0.052984476
000130 be 1c b4 bd 85 ac 92 bd 86 46 bf 3d 63 82 31 3d
       -0.08794545 -0.07161812 0.09339623 0.043337237
000140 cf 90 ac 3b a4 5e ff bd 67 1c f3 bd b8 b7 d2 bc
       0.005266286 -0.12469223 -0.11870652 -0.02572237
000150 3b 05 b3 bd 83 91 ec 3d 70 68 eb bd ab 31 73 be
       -0.08741232 0.11551192 -0.11494529 -0.23749416
000160 87 62 65 bd 2b 1c a3 bd 15 43 87 3e 00 50 2a 3e
       -0.056002166 -0.07964357 0.26418367 0.1663208
000170 8d d4 87 3e 00 71 14 3d 25 23 69 3e 77 71 ff 3d
       0.2652935 0.036240578 0.22767313 0.124728136
000180 1e 2d 72 3e 53 63 58 bd b9 cf ed 3d df 7d 0d 3e
       0.23650023 -0.052829098 0.116118856 0.13817547
000190 6f 8c e7 3d 4d 84 7f be 02 4f 4a 3e 6e f1 b9 bd
       0.113060825 -0.24952812 0.19756702 -0.09079252
0001a0 df d4 5e 3c 1f 1b 70 bd 36 a8 95 3d 77 d7 98 bd
       0.013600557 -0.058619615 0.07307474 -0.07462972
0001b0 65 d0 fa bc 51 0c 28 3d e1 36 a2 bd 4a 48 2d be
       -0.030616948 0.04102737 -0.079206236 -0.16922107
0001c0 8d 08 2c 3c 4b c7 09 3e b6 07 1a 3e 8c 57 1f 3e
       0.010500086 0.1345493 0.15042004 0.1556074
0001d0 21 ba 08 3e 9f cd 46 bd 7a a7 5e 3d 91 5d 8a 3e
       0.13352253 -0.04853594 0.054358937 0.2702451
0001e0 16 b4 f3 3a c3 d0 9a bd 08 7f 22 be c7 bc dd bd
       0.0018593099 -0.075593494 -0.15868771 -0.10827022
0001f0 67 5b 0d bd 6c 76 d7 3d 56 a2 12 3e 70 c9 79 3d
       -0.034510996 0.10520634 0.14319739 0.06098312
000200 5d 5b 46 3d 29 aa 11 be 54 0a ac bd 60 28 62 3e
       0.048426975 -0.14225067 -0.084004074 0.22085714
000210 91 56 ae 3d e4 01 2f be e3 1f 22 3e 9e 5d 29 3d
       0.08512605 -0.17090565 0.15832476 0.041349046
000220 91 45 75 3e 53 40 b7 bd 58 11 0b 3e 83 dc 06 3d
       0.23952319 -0.08947816 0.13580835 0.03292514
000230 88 eb d8 3d 70 61 00 3d 93 ab 9f bd ca 74 93 be
       0.10591799 0.031342924 -0.07796397 -0.2880004
000240 74 2d 1d 3e 0b 99 8c 3e 5a 09 74 3e a6 31 8a 3d
       0.1534937 0.27460513 0.23831692 0.06747751
000250 d3 c6 db bd ab 04 a9 3d 5c 71 41 bc e0 b2 0f 3e
       -0.10731282 0.082528435 -0.011806812 0.14033079
000260 05 b0 04 3e 47 4f 70 bc 7f 57 a0 bd ef e5 ca 3d
       0.12957771 -0.014667339 -0.078291886 0.099071376
000270 0a f9 8d 3c d8 97 ec 3d b1 93 36 3d cf 1c f6 3d
       0.017330665 0.115523994 0.044574443 0.120172136
000280 f4 f5 79 be 0b 2e 5a 3d be a0 f1 bd f3 42 ca 3d
       -0.2441023 0.053266566 -0.11798237 0.09876051
000290 3d b7 7a 3d 9e 38 36 3d 66 8f e7 bd 9f 96 1a bd
       0.061209906 0.044487588 -0.11306648 -0.0377413
0002a0 7f 2d df 3d 38 3f d9 bd 92 0a dd bd de ba 36 3d
       0.108973496 -0.10607761 -0.10793032 0.044611804
0002b0 bb 27 05 be 01 71 ca 3d ea 36 a8 bd ce 52 45 3d
       -0.13003437 0.09884835 -0.08213599 0.04817467
0002c0 16 3a 78 be 84 45 bb 3d af f9 c0 bd be c3 10 be
       -0.24240908 0.091441184 -0.09422623 -0.1413717
0002d0 7b 9d 22 3d 4d 96 3f 3d 72 21 ba bd e2 ed e6 bc
       0.039700966 0.046774197 -0.090884104 -0.028189603
0002e0 a0 c8 0d bb 7a 1b 7f bd bc 38 16 bb b0 77 0c 3e
       -0.0021634474 -0.062282063 -0.0022922 0.13717532
0002f0 f6 59 35 be fc 59 a6 3c ec c7 0b bc 70 e5 02 be
       -0.17710099 0.02030658 -0.008531552 -0.12782836
000300 0c 41 7e be 20 71 40 be 11 18 9f 3d f3 fe b4 bc
       -0.24829501 -0.18793154 0.07768262 -0.022094226
000310 a5 23 6a 3d 55 21 7e 3d 39 ec 50 3e 15 75 f5 bc
       0.0571629 0.062043507 0.20402612 -0.029963056
000320 f9 4e 70 bd 2f 08 00 be 57 82 ff 3d c2 92 93 bd
       -0.058669064 -0.12503122 0.12476032 -0.07205726
000330 a4 e1 93 3d e4 6b 10 bd f6 db 37 be 55 24 3f 3e
       0.07220772 -0.035259143 -0.17955002 0.18666203
000340 22 70 69 be 20 72 2c bd 91 25 2f 3d 36 dc a4 3d
       -0.22796682 -0.042101026 0.042760435 0.080498144
000350 02 e0 6e bd 99 4c f3 bd 50 3c 59 3e 50 ad 06 3e
       -0.0583191 -0.11879844 0.21214414 0.13152051
000360 06 44 11 3e 09 33 04 3d e5 41 52 be 8c d1 49 bd
       0.14186105 0.032275233 -0.2053295 -0.049272105
000370 2b 04 62 be 50 84 a5 bd ed 22 72 3c 5a b3 fd bd
       -0.22071902 -0.08081877 0.014778835 -0.12387724
000380 19 b6 41 3d b0 5a cd bd 32 ba dd 3d 84 cb 65 3e
       0.047292802 -0.10027063 0.108265296 0.22440916
000390 6f 07 47 3e c6 af bf 3d 69 1f b4 3d 0a 3f 2b 3d
       0.1943643 0.09359698 0.087950535 0.041808166
0003a0 63 ec 08 be 0f 07 b9 3d c3 a6 3c bd ef 5b 8f bd
       -0.13371424 0.090345494 -0.046057474 -0.06999957
0003b0 2a 3f fb bd eb a5 ab 3d f3 4f 22 bd 86 f1 70 bd
       -0.12267907 0.08381256 -0.039627027 -0.058824085
0003c0 95 e0 d4 bc d8 fa cd bd 69 6a 1d 3d 33 78 e8 3d
       -0.025985995 -0.1005761 0.03843156 0.11351051
0003d0 dd d8 4a be a0 5c 01 be 11 38 67 3d cd b7 b9 3d
       -0.1980929 -0.1263299 0.056449953 0.0906826
0003e0 47 12 82 3e a1 80 43 be d0 e1 b0 be 01 72 8d bd
       0.2540457 -0.19092037 -0.3454728 -0.0690651
0003f0 4d 62 9c 3d 4f ef 85 be e8 4c c2 3d 33 43 1b bd
       0.07635937 -0.2615914 0.09487325 -0.037905883

encoder_layers.0.W_q.bias f4 [32]
000000 d4 c4 e3 3d 75 e0 4e be c6 2f 8f bd 2d dd 61 be
       0.11121526 -0.20202811 -0.06991534 -0.22057028
000010 62 a9 43 be d5 9d b8 3d b2 53 5f bd 90 8a 21 bd
       -0.19107583 0.09014479 -0.054523177 -0.039438784
000020 58 5f 4e be 55 2c da 3d 5d a2 33 bd 6c 26 91 bc
       -0.20153558 0.10652987 -0.043856014 -0.017718516
000030 6e 83 04 3a c5 8f 78 be d6 b5 1b 3e 58 99 7f bd
       0.0005054985 -0.24273594 0.15206084 -0.0624021
000040 cd c4 ed 3c 9d c0 65 3e ac 6b c4 3d 2d b5 3e be
       0.029024506 0.22436757 0.09590849 -0.186238
000050 f3 0c b0 3c 0b 08 b0 3d 59 3f 34 bd ea d5 c1 bd
       0.02149055 0.08595284 -0.044005726 -0.09464629
000060 7a 99 d6 bd 46 1a 9e bc 24 c5 1e 3e fe 5f 08 be
       -0.10478492 -0.019299638 0.1550489 -0.13317868
000070 c4 8e bb 3e e3 e3 8a 3a 70 86 be bc 6c bc 8f 3d
       0.3663236 0.001059648 -0.023257464 0.070183605

encoder_layers.0.W_k.weight f4 [32, 32]
000000 30 a8 81 bd 54 81 dd bd f9 2b 0b 3e b3 4e 03 be
       -0.06330907 -0.10815683 0.13590993 -0.1282299
000010 75 74 c0 3c c2 4d 92 3d 53 11 ff bc 4e a3 d1 3d
       0.023493031 0.071437374 -0.03113619 0.10236226
000020 5b 50 0a 3d 2e 14 be 3e 72 eb 1c be 6b 35 43 3e
       0.03376804 0.3712477 -0.1532419 0.19063346
000030 7e 31 41 bd e5 8c 9c 3d 5f be 4b 3d 9d ee 92 3e
       -0.04716634 0.07644061 0.0497421 0.28697672
000040 ba 9f 29 3e 95 a7 a1 bd 1c 30 23 bd 92 be 59 be
       0.16564837 -0.07893292 -0.039840803 -0.21264103
000050 b3 de 88 3d 44 00 40 bc 52 33 8f bd 05 f6 a6 be
       0.066831015 -0.011718813 -0.069922104 -0.32609573
000060 da 76 e8 3d 0b ad 44 3d a5 db 80 3d af 05 2c 3e
       0.11350794 0.04801659 0.06291894 0.16799043
000070 f9 f1 8b bd bd 77 93 bd 3e 41 c2 3d f5 3e 80 bd
       -0.06833262 -0.07200573 0.094851 -0.06262008
000080 68 4a 32 3e 51 f9 80 3e 81 91 f3 bd 9c 16 d3 3d
       0.17411196 0.25190213 -0.11892987 0.10307047
000090 57 d0 f0 bd 29 28 37 3e bb 2e 66 3c 36 52 34 bd
       -0.11758488 0.17886414 0.014049227 -0.044023715
0000a0 60 e3 5d 3d b4 d2 93 be c2 92 bb 3c 4f 7e 88 be
       0.05417192 -0.2887169 0.022897128 -0.26658866
0000b0 1b e4 59 be 00 50 85 be 10 cf 72 be 0f f1 fd 3d
       -0.21278422 -0.26037598 -0.237118 0.12399494
0000c0 e3 18 2b 3e 7b 87 34 3e 5e 35 e9 bd 24 e2 2c 3d
       0.16708712 0.17629807 -0.11387132 0.042207852
0000d0 1e e9 9d 3d da a4 12 3e 81 09 d9 3d e8 cd d2 bd
       0.07710479 0.14320698 0.10597516 -0.1029318
0000e0 d9 a6 f8 bd 9e aa 3d 3e b5 0d 5e bc 19 ed 9c 3a
       -0.12141199 0.18522117 -0.013553073 0.0011972516
0000f0 32 e2 85 3c 8f 44 e4 bd 93 21 18 3e 39 1e 34 bd
       0.01634321 -0.11145889 0.14856558 -0.043974135
000100 c3 23 8a be ff 89 43 bd c5 d5 76 bd 7e e1 0f 3c
       -0.2698041 -0.047739025 -0.06026246 0.008781789
000110 1a 0b ab 3d a7 a6 31 3e 17 35 92 3e a8 a9 b6 bd
       0.08351727 0.17348729 0.2855613 -0.08919078
000120 88 a9 11 be db 36 c0 3d 0c be 8f bd 39 ef 9c 3c
       -0.14224827 0.09385463 -0.070186704 0.019157039
000130 1b 49 91 bd de 2f 5f 3e 71 00 14 be b4 90 ec 3d
       -0.07094022 0.21795604 -0.14453293 0.115510374
000140 8c e4 2a be 88 f2 4c be 86 3e 31 3e af 50 4b 3e
       -0.16688746 -0.20014393 0.17309007 0.19854997
000150 e2 48 19 3e 3b 32 1b bc 18 11 7b be a2 b9 c6 3d
       0.14969209 -0.009472425 -0.2451824 0.097033754
000160 36 0a ec bd 9c 74 b8 3d 3d 4d 11 3e ec 64 f5 bd
       -0.11525385 0.090066165 0.1418962 -0.1198214
000170 e1 4c c2 3b 06 d3 ee bd 37 25 4c be c2 89 2c 3c
       0.005929575 -0.11661343 -0.19936071 0.010530891
000180 70 57 9c 3d da 27 b9 3d 09 20 38 bd 6e 4d 53 3e
       0.07633865 0.09040804 -0.044952426 0.20635006
000190 6d 9f 81 3d e5 f1 3b be 7e 43 b2 bd 6f 9a 9d bd
       0.06329236 -0.18353994 -0.08704279 -0.076954715
0001a0 59 68 d2 3c fa 82 22 3d f6 bb f1 3c fc 8c b7 be
       0.025684522 0.03967569 0.029508572 -0.3584975
0001b0 cb 19 5d 3e e9 21 ae bd b1 6b 6a be bd 47 c1 3b
       0.2159187 -0.085025616 -0.22892644 0.0058984444
0001c0 b5 9b dc bd 55 b3 1c bd 33 36 1f 3e cc da ac bc
       -0.10771886 -0.03825696 0.15548019 -0.021100424
0001d0 1d 56 95 bd 23 e0 5d be 80 9b 31 3e 0a 7c 8b bd
       -0.072918154 -0.21667533 0.17344475 -0.06810768
0001e0 2e 71 3d 3d 73 6f 39 3e 63 9b 24 be 1c c6 08 be
       0.046250515 0.18108921 -0.160749 -0.13356823
0001f0 07 14 d8 bd 9b 25 7f 3d 2b 11 4e 3e 75 26 27 3e
       -0.10550695 0.062291723 0.20123737 0.16323264
000200 c6 b7 2a 3e 89 fe 33 3d cb 94 3f 3d 6d 3d 5f 3e
       0.16671667 0.043943916 0.04677276 0.21800776
000210 c4 55 6d bd b4 f6 4a 3c f0 af 29 3c c1 96 4d bd
       -0.05794312 0.01238792 0.010356888 -0.0501926
000220 40 05 eb 3d 28 73 d7 3c 1c 42 a4 3b dd 59 8f be
       0.11475611 0.026300028 0.0050127637 -0.27998248
000230 fc d8 d3 3b 2e ba 27 be d8 59 10 be a7 a6 06 3e
       0.0064650755 -0.16379616 -0.14096773 0.1314951
000240 f8 40 c9 bd 34 69 2f be fc a2 7c 3d 87 e8 00 3d
       -0.09826845 -0.17129976 0.06167887 0.031471755
000250 95 22 04 3d 78 c5 a8 bd 8d bb 2d 3e 03 93 45 3e
       0.032259542 -0.08240789 0.16966076 0.19294362
000260 68 a5 f0 3d 94 d8 31 be 1a 1e 13 3e 89 57 15 be
       0.11750299 -0.17367774 0.14366952 -0.14584173
000270 03 e9 2f bb 8b 51 0d be 28 aa 27 3e cb 0d c7 bc
       -0.0026841767 -0.13800637 0.16373503 -0.02429857
000280 c6 e6 1d be 3a a3 52 be 76 ca e0 3d e9 7f 18 3d
       -0.15420064 -0.20570078 0.10976116 0.03723136
000290 53 9d d7 bd 84 f2 4f be d3 1a 1b 3e a7 c9 b8 bd
       -0.10528054 -0.20307356 0.15146951 -0.09022837
0002a0 9d b6 22 bd 54 43 5f be f8 3f 6b bc 76 26 59 3c
       -0.039724935 -0.21803027 -0.014358513 0.013253799
0002b0 42 dc 25 be 3b 60 6d 3d 38 53 2d 3e 25 a5 f9 3d
       -0.16197303 0.0579531 0.16926277 0.12189702
0002c0 a9 10 2b bd 09 45 59 bc 71 a1 74 bc 40 27 f9 bd
       -0.041763935 -0.013261088 -0.014931069 -0.121656895
0002d0 64 8f c8 bd 9c ce fc 3d 9b 04 64 be 4d 65 1b 3d
       -0.097929746 0.12344095 -0.22267382 0.037938405
0002e0 11 cd 47 3e f0 79 a4 bd a0 8a 9a 3c 72 ab e0 bd
       0.1951182 -0.0803107 0.01886493 -0.109702006
0002f0 98 4e d8 bd 9f a7 b8 bd 63 2f 1d 3e 17 31 0f 3e
       -0.105618656 -0.09016346 0.15350108 0.1398357
000300 24 b2 c5 3c 27 1b bd bd 5a e5 65 bd 67 88 75 bd
       0.024132796 -0.092336945 -0.05612693 -0.059944537
000310 6d 4d c0 bd c7 89 2e be e3 d3 c4 bd b0 35 89 bd
       -0.09389768 -0.17044745 -0.09610727 -0.06699693
000320 b3 f0 be 3d cc 8b 05 be 93 48 9c bc bb cf 21 be
       0.093232535 -0.1304161 -0.019077575 -0.15801899
000330 b9 82 82 be 42 ae de bd 69 17 68 bd fc 52 0a be
       -0.25490358 -0.10873081 -0.05666295 -0.13508219
000340 99 09 7b 3e 38 a6 b8 3d 9e c9 44 be 33 e9 9d 3d
       0.2451538 0.09016079 -0.19217536 0.07710495
000350 6b 49 8a be a7 ec b9 3d 99 de c1 bc a4 7c 91 3c
       -0.27009138 0.09078341 -0.023665713 0.017759629
000360 9b 96 dd bd 48 39 5d 3d 2a 50 9c be c6 a7 c6 3c
       -0.10819741 0.054009706 -0.3052991 0.024249922
000370 03 fc b3 bc ae 08 5a bd bb 90 91 3e 02 24 34 be
       -0.021970754 -0.053230934 0.28430733 -0.17591861
000380 5e 88 5f 3d c8 ec 82 3b b7 18 52 bd bc 96 67 3e
       0.05457341 0.0039955117 -0.0512931 0.22616094
000390 d6 b6 27 bd 9c 6a 1b be 2e 60 ac 3d e2 53 c4 bd
       -0.04094585 -0.15177387 0.08416782 -0.09586312
0003a0 02 9d ed bd d5 3b 03 bd 45 8e 51 3d 30 b5 2d bd
       -0.116022125 -0.032039482 0.05116107 -0.042409122
0003b0 fd b0 66 bd 7e 1e ab bc 09 7e 3d be 17 86 86 be
       -0.056321133 -0.020888563 -0.1850511 -0.26274177
0003c0 3a 16 7d 3d 11 4f 7d 3d a4 f0 a7 3d 62 a5 a2 3e
       0.061788775 0.06184298 0.082001954 0.31766802
0003d0 a0 6f 34 be 59 f0 98 bd 5a 7a 36 3e d3 c0 0a 3d
       -0.17620707 -0.07467718 0.17820111 0.033875298
0003e0 49 2b ad bd b3 01 fd bc b7 33 48 be fd 23 13 3d
       -0.084555216 -0.0308846 -0.19550978 0.035922993
0003f0 86 c6 5b be 22 45 32 3e 48 37 7e 3e 75 be 5e be
       -0.2146245 0.17409185 0.24825776 -0.21752341

encoder_layers.0.W_k.bias f4 [32]
000000 4f df 16 be 03 f5 1b 3e f5 de 15 be 19 6a ea 3d
       -0.14733623 0.15230183 -0.14635833 0.11446018
000010 e9 50 2f bb e5 66 19 3e ca 6b 68 bd 37 a0 85 3d
       -0.0026751107 0.14980657 -0.05674342 0.06524699
000020 93 94 f6 3d ed 4e 54 3d 5d 10 15 be 9a 22 8e bd
       0.12040057 0.051833082 -0.14557023 -0.069401935
000030 33 d9 de 3d 69 7f d3 bd 41 56 df bd 2d 29 f1 bd
       0.10881271 -0.10327036 -0.109051235 -0.11775432
000040 35 9a 63 3c 22 1b e5 bd 86 3b f3 3c 54 23 20 be
       0.013891746 -0.11186816 0.029691469 -0.15638477
000050 44 98 2d be d9 0e 1b bb 8d 79 19 3e a3 5d e4 bd
       -0.16952616 -0.0023659973 0.14987774 -0.11150672
000060 d6 f6 c1 bb e8 02 46 bd 7d 5e bd bd 77 08 e4 bc
       -0.0059193177 -0.048342615 -0.09246538 -0.027836068
000070 cb 72 b0 3d ed ce 3c be 6b 37 21 be b5 75 41 bd
       0.08615645 -0.18438311 -0.15743797 -0.047231395

encoder_layers.0.W_v.weight f4 [32, 32]
000000 ff ed 3a be 26 d5 e7 3d 51 b6 4e be 9f a5 64 3e
       -0.18254851 0.11319952 -0.20186736 0.22328804
000010 65 4f 1b ba c5 26 18 bd 7c c2 bd bd 80 e6 92 3e
       -0.00059246115 -0.03714635 -0.092656106 0.28691483
000020 a4 d3 d5 bd 82 20 b5 bd 60 c4 1d 3e 05 db 5b be
       -0.10440758 -0.08844091 0.15406942 -0.21470268
000030 4a 59 b5 bd be db 73 be 14 92 e7 bd b0 42 01 3e
       -0.08854921 -0.23814294 -0.11307159 0.12623096
000040 25 e9 92 3e bf 5c 80 bc f1 89 81 3e 73 c3 db 3d
       0.286935 -0.015669225 0.25300553 0.10730638
000050 da 02 96 3b 8d fa e5 3d a5 14 84 bd 1f 6a 22 be
       0.0045779767 0.112294294 -0.0644925 -0.15860794
000060 6d 53 47 be 0d fa 91 3d 70 94 43 be 2a cd 72 3e
       -0.19465418 0.071277715 -0.19099593 0.23711076
000070 d0 04 b9 3c 21 ea 7a be 68 b0 c5 3d b6 8e 19 bd
       0.022585303 -0.24503376 0.096527874 -0.037489615
000080 dc be 76 be ba d8 c3 be 0f ae 09 be 60 68 a7 be
       -0.24096245 -0.38251287 -0.13445304 -0.3269682
000090 82 29 e4 3d 22 2d 95 be 6d c8 82 3e e1 f2 72 bd
       0.111407295 -0.29135996 0.25543538 -0.05931366
0000a0 69 f3 2f bd ee 3b 48 be 88 fe f4 3d 4d 11 4f 3e
       -0.042956743 -0.19554111 0.119626105 0.20221443
0000b0 a1 98 85 bd 86 76 ed bb 44 00 e8 3d 32 07 9e be
       -0.06523252 -0.007246795 0.11328176 -0.30864865
0000c0 d1 22 98 be d6 06 b6 bd 22 65 2b be 8e 58 1d bd
       -0.29714063 -0.088880226 -0.16737798 -0.03841453
0000d0 0b ba 85 3e 6d ba df 3d 51 e7 04 be 9c f2 81 3e
       0.26118502 0.1092423 -0.12978865 0.2538041
0000e0 5f 2e 3f be 88 c2 4e 3d c2 3c 0e be 4b 29 98 bd
       -0.18670033 0.05047849 -0.13890365 -0.07429751
0000f0 a8 b0 b6 bd 27 36 76 be 8a 97 10 be ba 15 e2 3c
       -0.08920413 -0.24044095 -0.14120308 0.02759825
000100 61 04 14 3e d9 01 3b 3c 69 a9 b1 3d d9 7e eb 3c
       0.14454795 0.011414015 0.086748905 0.02874701
000110 ae 3d a3 bd d5 ab 89 be 0a 53 93 be 15 81 7a 3c
       -0.07970749 -0.2688891 -0.2877429 0.015289565
000120 fb 7c a0 bc 09 56 f9 3c e2 5d b1 3e 85 df ac 3c
       -0.019590845 0.030436533 0.3464194 0.021102676
000130 79 3b 3c be fa a8 37 3e 6a e9 87 3e 2e 66 da 3c
       -0.18382062 0.17935553 0.26545268 0.026660051
000140 89 af 13 3e c2 b5 28 3d a5 46 fc bd 3b b7 a0 bd
       0.1442243 0.041188963 -0.12318162 -0.078474484
000150 52 4a 3b be 0c 96 68 3e e9 4e 06 be bd f8 e5 3b
       -0.1829007 0.22713488 -0.1311604 0.0070181773
000160 2b c9 08 3c 8c f4 78 bd 26 b5 7e 3e 54 55 bc be
       0.008348743 -0.060780093 0.2487379 -0.3678385
000170 66 4f 84 3e 0e 82 b0 3d 15 2f 80 3c 89 04 3c 3d
       0.25841826 0.08618556 0.01564745 0.045902763
000180 4b 15 87 bc 4c af 56 be ed 95 89 3d cf 75 0a be
       -0.016489645 -0.20965308 0.06718049 -0.13521503
000190 81 31 12 bb 90 a2 68 3d ae df 68 be bf f2 94 3d
       -0.0022307339 0.056795657 -0.22741577 0.07272863
0001a0 6b b6 43 3c 9a 30 58 3e ec 24 ae 3e 47 7a 08 be
       0.011945347 0.2111229 0.34012544 -0.13327895
0001b0 8f 24 0f 3e 81 ac eb 3c 5f 41 2e 3e b8 9e 06 be
       0.1397879 0.02876878 0.17017125 -0.13146484
0001c0 b0 ee 8c be ab 3f 13 3c 59 9f 50 be 8d 12 e5 3d
       -0.27525854 0.008987348 -0.20373286 0.11185179
0001d0 49 75 ca bd 4d 4a 9d 3d f0 40 c4 3d 40 56 c2 3d
       -0.098856516 0.076801874 0.09582698 0.09489107
0001e0 b5 59 4c 3d db 70 9e bd c4 93 be bd be d7 81 bd
       0.04989024 -0.07736369 -0.09305528 -0.06339978
0001f0 14 02 d6 bd f1 ee aa 3e 9a a0 a5 bb fd 0e f5 3d
       -0.10449615 0.33385423 -0.0050545456 0.119657494
000200 2d 83 51 3c 21 e0 19 be 71 20 65 3e 37 4e 28 be
       0.012787622 -0.15026905 0.22375657 -0.16436087
000210 ab fd ac bb 82 6f 32 3e 21 bc 41 3d 23 f8 85 3e
       -0.005279263 0.1742535 0.047298554 0.26165876
000220 89 47 0b 3e ca 51 cd 3d 11 a4 9b 3e 2c b5 17 be
       0.13601507 0.10025366 0.3039861 -0.14815205
000230 59 27 5a bd b6 9f 13 be 9c e6 72 be a2 d4 93 bd
       -0.05326018 -0.14416394 -0.23720783 -0.07218291
000240 b4 89 75 bd 6d eb 81 3e 36 72 ad 3d 57 00 02 be
       -0.059945777 0.25374928 0.0846905 -0.12695442
000250 d0 df 03 bd ac 04 5d bd af 40 55 3e 0b c0 f2 3d
       -0.032195866 -0.053959534 0.20825456 0.118530355
000260 9e c8 fc 3c ef 55 03 bb e6 79 45 3c 23 38 67 be
       0.03085738 -0.0020040234 0.012052989 -0.22580008
000270 4e d0 35 be 28 54 d8 3d 18 d1 2d 3e df 91 3a 3e
       -0.17755243 0.105629265 0.16974294 0.18219708
000280 a2 0f 92 b8 34 12 6a 3c d4 87 21 3e fe ba 13 be
       -6.964734e-05 0.0142865665 0.1577447 -0.144268
000290 ed 90 36 bc 52 56 4c be d2 c6 1b 3e 9f 7b 54 3e
       -0.011142951 -0.19954804 0.15212563 0.20750283
0002a0 80 10 e9 bd 6e 69 31 be 40 f4 26 3e dd 79 bc bb
       -0.113801 -0.17325374 0.16304111 -0.005751832
0002b0 7c 3c d6 bc 53 47 1b 3e ec 9d 91 be 81 83 a3 3b
       -0.026151888 0.15163927 -0.28440797 0.0049900417
0002c0 c6 ca 69 3d 32 df 14 be b7 ea 63 3e 1a 33 69 be
       0.057078145 -0.14538267 0.22257505 -0.227734
0002d0 14 37 e7 3d d5 e3 33 3e 8d 57 80 3e fb 0b c5 3d
       0.11289802 0.1756738 0.25066796 0.09621426
0002e0 25 b9 f1 3c 19 70 d4 bd 78 2f 82 3d 6e eb 21 bc
       0.02950723 -0.103729434 0.0635671 -0.009882791
0002f0 49 84 08 be 3f 24 13 3e 72 c0 03 be b5 8e 4a 3d
       -0.13331713 0.14369296 -0.12866381 0.049452502
000300 f7 8d 89 be 8b 2b 9c be 86 2f 08 3d 46 cc 92 be
       -0.26866123 -0.3050197 0.033248447 -0.28671473
000310 3d df aa bd 39 5a ab bc c4 cc 51 3e 67 c4 38 3d
       -0.083433606 -0.020917045 0.20488268 0.04510918
000320 05 49 09 3e 25 f2 66 3d a6 ba 06 be 07 8e 79 3e
       0.13406761 0.05638327 -0.13157138 0.24370585
000330 de 19 34 3e c0 2c 07 bd c0 e5 59 be c3 75 d4 bc
       0.17587993 -0.03300166 -0.21279049 -0.02593506
000340 18 07 83 be bf d2 bf bc 04 4c 25 3d 66 01 4f bd
       -0.2559135 -0.023415921 0.040355697 -0.050538443
000350 7a 2b b4 3d 31 b1 e3 bc 88 66 28 be 02 f3 21 3e
       0.08797355 -0.027794452 -0.16445363 0.15815356
000360 39 9a 46 3c 45 60 a1 3e c7 26 7e be d5 5d 42 3e
       0.0121217305 0.3151876 -0.2481948 0.18981107
000370 d4 c9 f7 3c 34 7e 69 3b 1c 4d 26 3e 81 10 24 be
       0.030247606 0.0035628201 0.16240352 -0.1602192
000380 62 e5 f7 bc 42 be 4c bc 2f fd 4c be 57 9a f3 3d
       -0.030260745 -0.012496533 -0.20018457 0.11894672
000390 e4 8a 02 be a4 15 18 be 03 90 84 bd a1 a2 3c 3e
       -0.12748295 -0.14852005 -0.064727806 0.18421413
0003a0 45 b0 38 be 0b f8 04 3c de 52 be bb a7 65 cf 3c
       -0.18035991 0.008115779 -0.0058082184 0.025317026
0003b0 74 09 ae 3c aa 09 b7 3c 7d c7 e0 bd cc b8 13 3e
       0.021244742 0.022343475 -0.10975549 0.14425963
0003c0 46 b4 21 3e 5d de 29 3c 88 cf 4f bc f8 01 b6 bd
       0.15791425 0.010367957 -0.012683757 -0.08887094
0003d0 5d 1e 41 bc 6b fe e4 3d 03 9f 15 3d 53 d6 18 be
       -0.011787024 0.11181339 0.0365286 -0.14925508
0003e0 27 29 40 bd ee 63 77 bd a5 dd 03 bd 1b 0d dd 3d
       -0.046914246 -0.060398035 -0.0321938 0.10793515
0003f0 6f 30 b4 3c 32 7d d2 bc d0 b9 9a bc 32 b8 d6 bd
       0.021995751 -0.025694463 -0.01888743 -0.10484351

encoder_layers.0.W_v.bias f4 [32]
000000 2f 39 85 3a f6 50 8d bc 41 d3 21 be ec 5c fb 3d
       0.0010164137 -0.01725052 -0.15803243 0.12273583
000010 cf 5c 4a 3e 7a 75 95 3d 79 8c 44 bd 4a d4 48 3d
       0.19761966 0.072977975 -0.047985528 0.04903058
000020 73 46 da bc 8c b8 f3 bd 9a 59 9e 3d 32 d2 01 3c
       -0.02664492 -0.11900434 0.07731934 0.00792365
000030 46 20 0c 3d 67 87 d7 3c c9 84 4a 3d b6 01 d4 bd
       0.034210466 0.026309682 0.04944304 -0.10351889
000040 99 06 10 3d d2 8b 5a 3c 80 8e 7b bd 38 eb 87 3c
       0.035162542 0.013339 -0.061415195 0.016591653
000050 be 35 5a 3c 12 0e 02 3c 65 ad b1 3d 3a 01 0f 3d
       0.013318477 0.007937925 0.086756505 0.03491328
000060 54 8d b2 3c c2 41 76 3b d4 11 09 be d9 1a 34 3e
       0.021795906 0.0037575816 -0.13385707 0.17588367
000070 a8 09 ba 3c 4c 42 86 3d fc ed 65 bd ea da a7 bd
       0.022709683 0.06555614 -0.056135163 -0.081960514

encoder_layers.0.W_o.weight f4 [32, 32]
000000 1d c9 2c bd a3 b2 6b bd a1 4c 44 3d 5e 92 82 be
       -0.042183984 -0.057543408 0.04792464 -0.25502294
000010 e1 3a 87 be f3 5b 59 bd 67 d8 52 3d f6 4a 30 bd
       -0.2641211 -0.053066205 0.05147591 -0.04304024
000020 98 00 f8 ba b5 39 44 3e b6 37 95 bd 75 c4 be bd
       -0.0018921075 0.19162638 -0.07286017 -0.09314815
000030 8f 02 f7 3d 7c 30 27 3e 3c 3e c6 bd 13 0d aa 3b
       0.12061035 0.16327089 -0.09679839 0.005189547
000040 64 e0 91 3e 45 2b 17 be 9a c7 da 3d 41 e1 85 3d
       0.2849151 -0.147626 0.10682602 0.065371044
000050 85 d0 31 be a8 22 f5 bd 7c e2 62 bd a8 d4 8b bd
       -0.173647 -0.11969501 -0.055391774 -0.0682767
000060 e2 24 6c 3b b3 bc b9 bd e8 15 d9 bd 93 e4 a1 3d
       0.0036032726 -0.09069195 -0.105998814 0.07904925
000070 e1 ad 64 be 11 f4 6d be d0 f1 e7 3d e3 f3 fd bd
       -0.22331955 -0.23237635 0.11325419 -0.12400033
000080 a0 ab 33 3e ce eb 82 be b1 87 17 be cf 5a 70 be
       0.17545938 -0.2557053 -0.14797856 -0.2347214
000090 3d 41 38 3e 33 2d c5 3b 01 2f fd bc 48 ca 0b 3e
       0.17993636 0.006017351 -0.030906202 0.13651383
0000a0 fc 33 86 3d 7e 6a 3c be 2b ed 1f 3e d4 69 1c bd
       0.06552884 -0.18399999 0.15617816 -0.038186863
0000b0 91 26 67 be a6 5b df be 45 80 87 3c fa 60 82 bc
       -0.22573306 -0.4362461 0.016540656 -0.015915383
0000c0 dd 3b 4b be 31 a8 8c be 53 d2 2b bd c7 ab a0 3e
       -0.19847055 -0.2747207 -0.041948628 0.31381056
0000d0 bc ed bb 3b 59 65 48 3e 91 a4 5f 3e 30 56 d9 bd
       0.0057351273 0.19569911 0.21840121 -0.10612142
0000e0 c2 75 9d bd 95 83 3d 3d b4 e9 45 bd d2 c9 91 bd
       -0.07688476 0.046268065 -0.04831858 -0.07118572
0000f0 7c ca 0e 3d ed d6 8b 3e b4 20 05 3e 13 6b 62 3d
       0.034861073 0.27312413 0.13000757 0.055277895
000100 6d ff 4d 3e d1 53 f7 bd 6b fc fc 3d 61 c4 f7 bd
       0.20116968 -0.120765336 0.123528324 -0.12098003
000110 aa 34 18 3e 98 f9 09 3e 6c 73 36 be f1 fd 69 3e
       0.1486384 0.13474119 -0.17817467 0.22850777
000120 62 98 18 3e 01 6d 27 be f5 c8 00 3e f1 d4 d5 3d
       0.1490188 -0.16350175 0.12576659 0.10441006
000130 09 69 19 be 1a d5 d6 3c 38 43 6d 3d 17 bf 15 be
       -0.14981474 0.026224662 0.057925433 -0.14623676
000140 24 a6 ea 3d 75 8a 14 3e 70 12 af be ac 59 c5 3d
       0.1145747 0.14505942 -0.34193754 0.09636244
000150 53 9a 67 be 8c 96 9a bd 4a 80 3f be 8b c8 35 3e
       -0.22617464 -0.07548246 -0.18701282 0.17752282
000160 fd 30 ae 3e 63 01 c4 3d 2d c7 ab bd 9d 74 e2 bc
       0.3402175 0.09570577 -0.08387599 -0.027643496
000170 7a f1 f2 bd be a9 3a bd 72 75 2f be 7f 1c 51 3e
       -0.11862464 -0.045572035 -0.17134646 0.20421027
000180 f2 f6 80 be 71 c4 a7 3e 16 db ac bd c5 fd 52 be
       -0.25188404 0.3276706 -0.08440225 -0.20604618
000190 da 28 08 be 65 89 e8 bb 1d cd b7 3e d2 7a d3 bd
       -0.13296834 -0.007096457 0.35898677 -0.103261605
0001a0 eb c5 73 3d 9c 85 74 3d 43 4b 6f be 55 6d 42 3e
       0.05951492 0.059697732 -0.23368554 0.1898702
0001b0 7f 73 e5 bd fd 60 1d 3d 7f 09 0c 3e 71 f7 32 3e
       -0.1120367 0.038422573 0.13675497 0.17477204
0001c0 a5 c2 91 bd b5 ee 45 3e 73 d2 1d be d7 f1 e7 3c
       -0.071172036 0.19329341 -0.15412311 0.02831356
0001d0 bb 0d 51 be 67 f3 e6 3d 2a 7c 5d bd a6 d7 1a be
       -0.20415394 0.11276894 -0.05407349 -0.15121326
0001e0 c1 bb b7 3d 8a 02 ef 3d f6 9c 93 3a 52 0b 92 3d
       0.08971358 0.11670406 0.0011261988 0.071310654
0001f0 48 a3 41 be 84 5a 0e 3e a9 04 83 3e 4a 53 7b be
       -0.18909943 0.13901716 0.25589493 -0.24543491
000200 ae 61 97 be bc 32 2e be a1 cc a6 bd 1a 18 02 3e
       -0.2956671 -0.17011541 -0.081444986 0.12704507
000210 9f b9 a9 3e 10 d8 42 bd 5f 80 88 bd ab 8a 9a bd
       0.3314943 -0.047569335 -0.0666511 -0.0754598
000220 ca 6e aa be 14 5a 93 be 1c bc dd bd b2 d5 91 bd
       -0.3328765 -0.28779662 -0.10826895 -0.07120837
000230 22 1f 1f 3e e0 7d 33 bd 95 97 72 3d 11 04 12 be
       0.1553922 -0.043821216 0.05922659 -0.14259364
000240 6e f7 8b bd b8 d6 e4 bd 08 b3 d0 3c c3 ec 14 be
       -0.06834303 -0.11173767 0.025475994 -0.14543442
000250 b5 1c 06 be 00 03 fe bd 2d b3 d2 bc 72 f2 0e bd
       -0.13096888 -0.12402916 -0.025720203 -0.034899183
000260 e4 3d a6 3d f5 17 24 3d 94 78 9e bc 61 7f 29 be
       0.081172734 0.04006191 -0.019344606 -0.16552497
000270 dc b7 7e 3d c2 98 ab bd c9 10 34 be 04 42 2e 3e
       0.06218706 -0.083787456 -0.17584528 0.1701737
000280 33 be ac bd 93 c4 1d 3e 3e 6d 40 bd 6c 96 1e be
       -0.08434715 0.15407018 -0.04697918 -0.15487069
000290 33 d2 b9 bc c9 a9 c3 3c e0 78 36 ba df 9f 99 bd
       -0.022683239 0.02388467 -0.0006960761 -0.07501196
0002a0 c4 88 04 3e 92 73 7e bd 0b 10 ea bc db 36 02 3e
       0.12942797 -0.062121935 -0.028572103 0.12716238
0002b0 f9 50 f1 bd e2 f1 ab bd 45 80 f4 3d 9e de 01 bc
       -0.117830224 -0.08395745 0.11938528 -0.007926611
0002c0 a3 62 ea bd 3e 0c aa bd ab 6e fe 3d d8 af 85 be
       -0.11444595 -0.08303116 0.12423452 -0.2611072
0002d0 55 42 8e bd 81 6a 79 3e 26 3d c3 3d 38 98 b8 be
       -0.069462456 0.24357034 0.095331475 -0.36053634
0002e0 c4 ef 09 3c 10 6f f9 3d 6b 5d f9 bd d9 ce 2d bd
       0.008418981 0.121793866 -0.12176021 -0.042433593
0002f0 7b dc b5 bc 2d da 4c 3e 4f d8 5a 3e 81 5e 80 bd
       -0.02219986 0.20005102 0.21371578 -0.06268025
000300 d0 cb da 3d 03 22 15 3d fb 0a dd 3c 51 39 83 be
       0.106834054 0.03640939 0.026982775 -0.25629666
000310 3a 5c 84 be ca d1 67 be eb ad 7b 3e 4a f0 06 3e
       -0.25851613 -0.22638622 0.24578063 0.131776
000320 b0 76 a6 bd 8d 55 c2 3d 69 d8 28 be 2f 30 84 3d
       -0.081281066 0.09488974 -0.16488804 0.06454503
000330 7b f8 2e bd c7 1b 3f bd 5e 69 17 3e 7e f7 2b bc
       -0.04271744 -0.04665735 0.14786288 -0.010496018
000340 93 ab 79 3d 60 00 88 bd 7e 69 35 bd 38 e7 f2 3a
       0.06095464 -0.066406965 -0.04429006 0.0018532043
000350 80 e6 f4 bd a9 6d 2e 3d 60 92 fa 3d 35 d7 c7 bd
       -0.11958027 0.04258505 0.1223495 -0.09757844
000360 f5 69 ed 3b 25 4d c2 3d 6b 5f cc bc d2 b9 55 be
       0.007245297 0.094873704 -0.024947843 -0.20871666
000370 80 a9 27 3d 2f e4 f5 3d dd 21 d9 3d d2 a5 f5 3d
       0.040933132 0.12006413 0.10602162 0.11994518
000380 ab ab 69 bd aa da 84 3e 98 c6 97 be 02 39 58 bc
       -0.05704848 0.25948077 -0.29643703 -0.0131971855
000390 18 81 b5 bd 17 7e 60 3d fe 26 34 3e 5d 25 7c 3d
       -0.08862513 0.05480775 0.17593 0.06155907
0003a0 53 ec 0f be 56 70 83 3d 48 15 3c be 40 33 42 3e
       -0.14054994 0.06417911 -0.18367493 0.18964863
0003b0 ec 86 28 3e 59 b9 22 bd f2 2f 29 3e 5f fd 27 be
       0.16457719 -0.039727543 0.16522196 -0.16405247
0003c0 00 6b f6 3d fa 1c 04 be 8c e7 a3 3d 39 b8 62 be
       0.120321274 -0.12901679 0.080031484 -0.22140588
0003d0 0a fc 8e be c0 70 99 bd 93 8a dd bd d0 c7 35 3d
       -0.27926666 -0.074922085 -0.108174466 0.04438001
0003e0 73 51 85 3e 2a 80 d1 3d 36 9f 16 bb 11 b1 de bd
       0.26038703 0.102295235 -0.002298308 -0.108736165
0003f0 cc 12 29 3e 2c 18 df bb 81 c5 8a be 1f 31 20 3e
       0.16511077 -0.0068083014 -0.2710381 0.15643738

encoder_layers.0.W_o.bias f4 [32]
000000 29 69 94 3c 29 42 12 bd 53 60 0a 3e 7d c1 9c bd
       0.01811655 -0.035707626 0.13513307 -0.076540925
000010 50 f1 d9 3d 81 88 d5 bd 29 00 99 bd 26 58 72 3e
       0.1064173 -0.10426427 -0.07470734 0.23666438
000020 06 28 d0 3a 6a c7 24 3e 47 3f 6c 3d fe 9c 4d 3d
       0.0015881069 0.16091695 0.057677533 0.050198548
000030 fc 9b 6e ba 58 2a a5 bd fe ca ab bd 54 6d 1c be
       -0.0009102223 -0.08064717 -0.08388327 -0.1527608
000040 d8 34 79 bd ec b4 3a bd 9a 31 2c 3e 6b 72 c5 3d
       -0.06084141 -0.045582697 0.16815796 0.09640964
000050 2f 67 33 be 7f e8 85 bc 40 02 ae bd 8e 86 c8 3d
       -0.1751983 -0.016346214 -0.08496523 0.09791289
000060 1f 40 16 3e f5 2c b8 3d 92 54 88 bd 70 20 2d be
       0.14672898 0.0899295 -0.066567555 -0.16906905
000070 67 70 25 3d 0f 33 02 3e 71 73 f9 3d dd 11 85 3c
       0.0403904 0.1271479 0.12180222 0.01624387
